{"format": "graph-model", "generatedBy": "1.15.0", "convertedBy": "TensorFlow.js Converter v1.7.3", "userDefinedMetadata": {"signature": {"inputs": {"global_step:0": {"name": "global_step:0", "dtype": "DT_RESOURCE", "tensorShape": {}}, "fed_input_sizes:0": {"name": "fed_input_sizes:0", "dtype": "DT_INT32", "tensorShape": {"dim": [{"size": "1"}, {"size": "-1"}]}}, "fed_combined_input:0": {"name": "fed_combined_input:0", "dtype": "DT_FLOAT", "tensorShape": {"dim": [{"size": "1"}, {"size": "-1"}, {"size": "5"}]}}}, "outputs": {"rnn_classifier/fc_to_logits/BiasAdd:0": {"name": "rnn_classifier/fc_to_logits/BiasAdd:0", "dtype": "DT_FLOAT", "tensorShape": {"dim": [{"size": "1"}, {"size": "419"}]}}, "softmax_outputs:0": {"name": "softmax_outputs:0", "dtype": "DT_FLOAT", "tensorShape": {"dim": [{"size": "1"}, {"size": "419"}]}}}}}, "modelTopology": {"node": [{"name": "global_step", "op": "Placeholder", "attr": {"shape": {"shape": {}}, "dtype": {"type": "DT_RESOURCE"}}}, {"name": "rnn_classifier/max_pooling/SequenceMask/Const_2", "op": "Const", "attr": {"dtype": {"type": "DT_INT32"}, "value": {"tensor": {"dtype": "DT_INT32", "tensorShape": {}}}}}, {"name": "rnn_classifier/max_pooling/SequenceMask/Const_1", "op": "Const", "attr": {"value": {"tensor": {"dtype": "DT_INT32", "tensorShape": {}}}, "dtype": {"type": "DT_INT32"}}}, {"name": "rnn_classifier/max_pooling/SequenceMask/Const", "op": "Const", "attr": {"value": {"tensor": {"dtype": "DT_INT32", "tensorShape": {"dim": [{"size": "1"}]}}}, "dtype": {"type": "DT_INT32"}}}, {"name": "rnn_classifier/max_pooling/SequenceMask/Const_3", "op": "Const", "attr": {"dtype": {"type": "DT_INT32"}, "value": {"tensor": {"dtype": "DT_INT32", "tensorShape": {}}}}}, {"name": "rnn_classifier/max_pooling/SequenceMask/ExpandDims/dim", "op": "Const", "attr": {"dtype": {"type": "DT_INT32"}, "value": {"tensor": {"dtype": "DT_INT32", "tensorShape": {}}}}}, {"name": "rnn_classifier/max_pooling/ExpandDims/dim", "op": "Const", "attr": {"value": {"tensor": {"dtype": "DT_INT32", "tensorShape": {}}}, "dtype": {"type": "DT_INT32"}}}, {"name": "rnn_classifier/max_pooling/Tile/multiples/0", "op": "Const", "attr": {"dtype": {"type": "DT_INT32"}, "value": {"tensor": {"dtype": "DT_INT32", "tensorShape": {}}}}}, {"name": "rnn_classifier/max_pooling/Tile/multiples/1", "op": "Const", "attr": {"value": {"tensor": {"dtype": "DT_INT32", "tensorShape": {}}}, "dtype": {"type": "DT_INT32"}}}, {"name": "rnn_classifier/max_pooling/strided_slice/stack", "op": "Const", "attr": {"value": {"tensor": {"dtype": "DT_INT32", "tensorShape": {"dim": [{"size": "1"}]}}}, "dtype": {"type": "DT_INT32"}}}, {"name": "rnn_classifier/max_pooling/strided_slice/stack_1", "op": "Const", "attr": {"value": {"tensor": {"dtype": "DT_INT32", "tensorShape": {"dim": [{"size": "1"}]}}}, "dtype": {"type": "DT_INT32"}}}, {"name": "rnn_classifier/max_pooling/strided_slice/stack_2", "op": "Const", "attr": {"dtype": {"type": "DT_INT32"}, "value": {"tensor": {"dtype": "DT_INT32", "tensorShape": {"dim": [{"size": "1"}]}}}}}, {"name": "rnn_classifier/max_pooling/Const", "op": "Const", "attr": {"dtype": {"type": "DT_INT32"}, "value": {"tensor": {"dtype": "DT_INT32", "tensorShape": {"dim": [{"size": "3"}]}}}}}, {"name": "rnn_classifier/bidi_lstm/bidirectional_rnn/fw/fw/TensorArrayStack/range/start", "op": "Const", "attr": {"dtype": {"type": "DT_INT32"}, "value": {"tensor": {"dtype": "DT_INT32", "tensorShape": {}}}}}, {"name": "rnn_classifier/bidi_lstm/bidirectional_rnn/fw/fw/TensorArrayStack/range/delta", "op": "Const", "attr": {"value": {"tensor": {"dtype": "DT_INT32", "tensorShape": {}}}, "dtype": {"type": "DT_INT32"}}}, {"name": "rnn_classifier/bidi_lstm/bidirectional_rnn/fw/fw/zeros", "op": "Const", "attr": {"value": {"tensor": {"dtype": "DT_FLOAT", "tensorShape": {"dim": [{"size": "1"}, {"size": "128"}]}}}, "dtype": {"type": "DT_FLOAT"}}}, {"name": "rnn_classifier/bidi_lstm/bidirectional_rnn/fw/fw/LSTMCellZeroState/zeros", "op": "Const", "attr": {"dtype": {"type": "DT_FLOAT"}, "value": {"tensor": {"dtype": "DT_FLOAT", "tensorShape": {"dim": [{"size": "1"}, {"size": "128"}]}}}}}, {"name": "rnn_classifier/bidi_lstm/bidirectional_rnn/fw/fw/TensorArrayUnstack/range/start", "op": "Const", "attr": {"dtype": {"type": "DT_INT32"}, "value": {"tensor": {"dtype": "DT_INT32", "tensorShape": {}}}}}, {"name": "rnn_classifier/bidi_lstm/bidirectional_rnn/fw/fw/TensorArrayUnstack/strided_slice/stack", "op": "Const", "attr": {"value": {"tensor": {"dtype": "DT_INT32", "tensorShape": {"dim": [{"size": "1"}]}}}, "dtype": {"type": "DT_INT32"}}}, {"name": "rnn_classifier/bidi_lstm/bidirectional_rnn/fw/fw/TensorArrayUnstack/strided_slice/stack_1", "op": "Const", "attr": {"dtype": {"type": "DT_INT32"}, "value": {"tensor": {"dtype": "DT_INT32", "tensorShape": {"dim": [{"size": "1"}]}}}}}, {"name": "rnn_classifier/bidi_lstm/bidirectional_rnn/fw/fw/TensorArrayUnstack/strided_slice/stack_2", "op": "Const", "attr": {"value": {"tensor": {"dtype": "DT_INT32", "tensorShape": {"dim": [{"size": "1"}]}}}, "dtype": {"type": "DT_INT32"}}}, {"name": "rnn_classifier/bidi_lstm/bidirectional_rnn/fw/fw/TensorArrayUnstack/range/delta", "op": "Const", "attr": {"value": {"tensor": {"dtype": "DT_INT32", "tensorShape": {}}}, "dtype": {"type": "DT_INT32"}}}, {"name": "rnn_classifier/bidi_lstm/bidirectional_rnn/fw/fw/LSTMCellZeroState/zeros_1", "op": "Const", "attr": {"value": {"tensor": {"dtype": "DT_FLOAT", "tensorShape": {"dim": [{"size": "1"}, {"size": "128"}]}}}, "dtype": {"type": "DT_FLOAT"}}}, {"name": "bidi_lstm/bidirectional_rnn/fw/lstm_cell/kernel", "op": "Const", "attr": {"dtype": {"type": "DT_FLOAT"}, "value": {"tensor": {"dtype": "DT_FLOAT", "tensorShape": {"dim": [{"size": "608"}, {"size": "512"}]}}}}}, {"name": "bidi_lstm/bidirectional_rnn/fw/lstm_cell/bias", "op": "Const", "attr": {"value": {"tensor": {"dtype": "DT_FLOAT", "tensorShape": {"dim": [{"size": "512"}]}}}, "dtype": {"type": "DT_FLOAT"}}}, {"name": "rnn_classifier/bidi_lstm/bidirectional_rnn/fw/fw/time", "op": "Const", "attr": {"value": {"tensor": {"dtype": "DT_INT32", "tensorShape": {}}}, "dtype": {"type": "DT_INT32"}}}, {"name": "rnn_classifier/bidi_lstm/bidirectional_rnn/fw/fw/while/iteration_counter", "op": "Const", "attr": {"value": {"tensor": {"dtype": "DT_INT32", "tensorShape": {}}}, "dtype": {"type": "DT_INT32"}}}, {"name": "rnn_classifier/bidi_lstm/bidirectional_rnn/fw/fw/concat", "op": "Const", "attr": {"value": {"tensor": {"dtype": "DT_INT32", "tensorShape": {"dim": [{"size": "3"}]}}}, "dtype": {"type": "DT_INT32"}}}, {"name": "rnn_classifier/bidi_lstm/bidirectional_rnn/fw/fw/strided_slice/stack", "op": "Const", "attr": {"value": {"tensor": {"dtype": "DT_INT32", "tensorShape": {"dim": [{"size": "1"}]}}}, "dtype": {"type": "DT_INT32"}}}, {"name": "rnn_classifier/bidi_lstm/bidirectional_rnn/fw/fw/strided_slice/stack_1", "op": "Const", "attr": {"value": {"tensor": {"dtype": "DT_INT32", "tensorShape": {"dim": [{"size": "1"}]}}}, "dtype": {"type": "DT_INT32"}}}, {"name": "rnn_classifier/bidi_lstm/bidirectional_rnn/fw/fw/strided_slice/stack_2", "op": "Const", "attr": {"value": {"tensor": {"dtype": "DT_INT32", "tensorShape": {"dim": [{"size": "1"}]}}}, "dtype": {"type": "DT_INT32"}}}, {"name": "rnn_classifier/bidi_lstm/bidirectional_rnn/fw/fw/Maximum/x", "op": "Const", "attr": {"value": {"tensor": {"dtype": "DT_INT32", "tensorShape": {}}}, "dtype": {"type": "DT_INT32"}}}, {"name": "rnn_classifier/bidi_lstm/bidirectional_rnn/fw/fw/Const_4", "op": "Const", "attr": {"value": {"tensor": {"dtype": "DT_INT32", "tensorShape": {"dim": [{"size": "1"}]}}}, "dtype": {"type": "DT_INT32"}}}, {"name": "rnn_classifier/bidi_lstm/bidirectional_rnn/fw/fw/concat_2", "op": "Const", "attr": {"value": {"tensor": {"dtype": "DT_INT32", "tensorShape": {"dim": [{"size": "3"}]}}}, "dtype": {"type": "DT_INT32"}}}, {"name": "rnn_classifier/bidi_lstm/bidirectional_rnn/bw/bw/TensorArrayStack/range/start", "op": "Const", "attr": {"value": {"tensor": {"dtype": "DT_INT32", "tensorShape": {}}}, "dtype": {"type": "DT_INT32"}}}, {"name": "rnn_classifier/bidi_lstm/bidirectional_rnn/bw/bw/TensorArrayStack/range/delta", "op": "Const", "attr": {"value": {"tensor": {"dtype": "DT_INT32", "tensorShape": {}}}, "dtype": {"type": "DT_INT32"}}}, {"name": "rnn_classifier/bidi_lstm/bidirectional_rnn/bw/bw/zeros", "op": "Const", "attr": {"value": {"tensor": {"dtype": "DT_FLOAT", "tensorShape": {"dim": [{"size": "1"}, {"size": "128"}]}}}, "dtype": {"type": "DT_FLOAT"}}}, {"name": "rnn_classifier/bidi_lstm/bidirectional_rnn/bw/bw/LSTMCellZeroState/zeros", "op": "Const", "attr": {"dtype": {"type": "DT_FLOAT"}, "value": {"tensor": {"dtype": "DT_FLOAT", "tensorShape": {"dim": [{"size": "1"}, {"size": "128"}]}}}}}, {"name": "rnn_classifier/bidi_lstm/bidirectional_rnn/bw/bw/TensorArrayUnstack/range/start", "op": "Const", "attr": {"dtype": {"type": "DT_INT32"}, "value": {"tensor": {"dtype": "DT_INT32", "tensorShape": {}}}}}, {"name": "rnn_classifier/bidi_lstm/bidirectional_rnn/bw/bw/TensorArrayUnstack/strided_slice/stack", "op": "Const", "attr": {"dtype": {"type": "DT_INT32"}, "value": {"tensor": {"dtype": "DT_INT32", "tensorShape": {"dim": [{"size": "1"}]}}}}}, {"name": "rnn_classifier/bidi_lstm/bidirectional_rnn/bw/bw/TensorArrayUnstack/strided_slice/stack_1", "op": "Const", "attr": {"value": {"tensor": {"dtype": "DT_INT32", "tensorShape": {"dim": [{"size": "1"}]}}}, "dtype": {"type": "DT_INT32"}}}, {"name": "rnn_classifier/bidi_lstm/bidirectional_rnn/bw/bw/TensorArrayUnstack/strided_slice/stack_2", "op": "Const", "attr": {"dtype": {"type": "DT_INT32"}, "value": {"tensor": {"dtype": "DT_INT32", "tensorShape": {"dim": [{"size": "1"}]}}}}}, {"name": "rnn_classifier/bidi_lstm/bidirectional_rnn/bw/bw/TensorArrayUnstack/range/delta", "op": "Const", "attr": {"value": {"tensor": {"dtype": "DT_INT32", "tensorShape": {}}}, "dtype": {"type": "DT_INT32"}}}, {"name": "rnn_classifier/bidi_lstm/bidirectional_rnn/bw/bw/LSTMCellZeroState/zeros_1", "op": "Const", "attr": {"value": {"tensor": {"dtype": "DT_FLOAT", "tensorShape": {"dim": [{"size": "1"}, {"size": "128"}]}}}, "dtype": {"type": "DT_FLOAT"}}}, {"name": "bidi_lstm/bidirectional_rnn/bw/lstm_cell/kernel", "op": "Const", "attr": {"dtype": {"type": "DT_FLOAT"}, "value": {"tensor": {"dtype": "DT_FLOAT", "tensorShape": {"dim": [{"size": "608"}, {"size": "512"}]}}}}}, {"name": "bidi_lstm/bidirectional_rnn/bw/lstm_cell/bias", "op": "Const", "attr": {"value": {"tensor": {"dtype": "DT_FLOAT", "tensorShape": {"dim": [{"size": "512"}]}}}, "dtype": {"type": "DT_FLOAT"}}}, {"name": "rnn_classifier/bidi_lstm/bidirectional_rnn/bw/bw/time", "op": "Const", "attr": {"dtype": {"type": "DT_INT32"}, "value": {"tensor": {"dtype": "DT_INT32", "tensorShape": {}}}}}, {"name": "rnn_classifier/bidi_lstm/bidirectional_rnn/bw/bw/while/iteration_counter", "op": "Const", "attr": {"dtype": {"type": "DT_INT32"}, "value": {"tensor": {"dtype": "DT_INT32", "tensorShape": {}}}}}, {"name": "rnn_classifier/Convolutions/strided_slice/stack", "op": "Const", "attr": {"value": {"tensor": {"dtype": "DT_INT32", "tensorShape": {"dim": [{"size": "2"}]}}}, "dtype": {"type": "DT_INT32"}}}, {"name": "rnn_classifier/Convolutions/strided_slice/stack_1", "op": "Const", "attr": {"dtype": {"type": "DT_INT32"}, "value": {"tensor": {"dtype": "DT_INT32", "tensorShape": {"dim": [{"size": "2"}]}}}}}, {"name": "rnn_classifier/Convolutions/strided_slice/stack_2", "op": "Const", "attr": {"value": {"tensor": {"dtype": "DT_INT32", "tensorShape": {"dim": [{"size": "2"}]}}}, "dtype": {"type": "DT_INT32"}}}, {"name": "rnn_classifier/Convolutions/Conv/conv1d/ExpandDims/dim", "op": "Const", "attr": {"value": {"tensor": {"dtype": "DT_INT32", "tensorShape": {}}}, "dtype": {"type": "DT_INT32"}}}, {"name": "rnn_classifier/Convolutions/Conv/conv1d/ExpandDims_1", "op": "Const", "attr": {"dtype": {"type": "DT_FLOAT"}, "value": {"tensor": {"dtype": "DT_FLOAT", "tensorShape": {"dim": [{"size": "1"}, {"size": "5"}, {"size": "1"}, {"size": "48"}]}}}}}, {"name": "Convolutions/Conv/biases", "op": "Const", "attr": {"dtype": {"type": "DT_FLOAT"}, "value": {"tensor": {"dtype": "DT_FLOAT", "tensorShape": {"dim": [{"size": "48"}]}}}}}, {"name": "rnn_classifier/Convolutions/Conv_1/conv1d/ExpandDims/dim", "op": "Const", "attr": {"value": {"tensor": {"dtype": "DT_INT32", "tensorShape": {}}}, "dtype": {"type": "DT_INT32"}}}, {"name": "rnn_classifier/Convolutions/Conv_1/conv1d/ExpandDims_1", "op": "Const", "attr": {"value": {"tensor": {"dtype": "DT_FLOAT", "tensorShape": {"dim": [{"size": "1"}, {"size": "5"}, {"size": "48"}, {"size": "64"}]}}}, "dtype": {"type": "DT_FLOAT"}}}, {"name": "Convolutions/Conv_1/biases", "op": "Const", "attr": {"value": {"tensor": {"dtype": "DT_FLOAT", "tensorShape": {"dim": [{"size": "64"}]}}}, "dtype": {"type": "DT_FLOAT"}}}, {"name": "rnn_classifier/Convolutions/Conv_2/conv1d/ExpandDims/dim", "op": "Const", "attr": {"value": {"tensor": {"dtype": "DT_INT32", "tensorShape": {}}}, "dtype": {"type": "DT_INT32"}}}, {"name": "rnn_classifier/Convolutions/Conv_2/conv1d/ExpandDims_1", "op": "Const", "attr": {"value": {"tensor": {"dtype": "DT_FLOAT", "tensorShape": {"dim": [{"size": "1"}, {"size": "3"}, {"size": "64"}, {"size": "96"}]}}}, "dtype": {"type": "DT_FLOAT"}}}, {"name": "Convolutions/Conv_2/biases", "op": "Const", "attr": {"value": {"tensor": {"dtype": "DT_FLOAT", "tensorShape": {"dim": [{"size": "96"}]}}}, "dtype": {"type": "DT_FLOAT"}}}, {"name": "rnn_classifier/Convolutions/strided_slice_1/stack", "op": "Const", "attr": {"value": {"tensor": {"dtype": "DT_INT32", "tensorShape": {"dim": [{"size": "2"}]}}}, "dtype": {"type": "DT_INT32"}}}, {"name": "rnn_classifier/Convolutions/strided_slice_1/stack_1", "op": "Const", "attr": {"value": {"tensor": {"dtype": "DT_INT32", "tensorShape": {"dim": [{"size": "2"}]}}}, "dtype": {"type": "DT_INT32"}}}, {"name": "rnn_classifier/Convolutions/strided_slice_1/stack_2", "op": "Const", "attr": {"dtype": {"type": "DT_INT32"}, "value": {"tensor": {"dtype": "DT_INT32", "tensorShape": {"dim": [{"size": "2"}]}}}}}, {"name": "rnn_classifier/Convolutions/Conv_3/conv1d/ExpandDims/dim", "op": "Const", "attr": {"value": {"tensor": {"dtype": "DT_INT32", "tensorShape": {}}}, "dtype": {"type": "DT_INT32"}}}, {"name": "rnn_classifier/Convolutions/Conv_3/conv1d/ExpandDims_1", "op": "Const", "attr": {"value": {"tensor": {"dtype": "DT_FLOAT", "tensorShape": {"dim": [{"size": "1"}, {"size": "5"}, {"size": "1"}, {"size": "48"}]}}}, "dtype": {"type": "DT_FLOAT"}}}, {"name": "Convolutions/Conv_3/biases", "op": "Const", "attr": {"value": {"tensor": {"dtype": "DT_FLOAT", "tensorShape": {"dim": [{"size": "48"}]}}}, "dtype": {"type": "DT_FLOAT"}}}, {"name": "rnn_classifier/Convolutions/Conv_4/conv1d/ExpandDims/dim", "op": "Const", "attr": {"value": {"tensor": {"dtype": "DT_INT32", "tensorShape": {}}}, "dtype": {"type": "DT_INT32"}}}, {"name": "rnn_classifier/Convolutions/Conv_4/conv1d/ExpandDims_1", "op": "Const", "attr": {"value": {"tensor": {"dtype": "DT_FLOAT", "tensorShape": {"dim": [{"size": "1"}, {"size": "5"}, {"size": "48"}, {"size": "64"}]}}}, "dtype": {"type": "DT_FLOAT"}}}, {"name": "Convolutions/Conv_4/biases", "op": "Const", "attr": {"dtype": {"type": "DT_FLOAT"}, "value": {"tensor": {"dtype": "DT_FLOAT", "tensorShape": {"dim": [{"size": "64"}]}}}}}, {"name": "rnn_classifier/Convolutions/Conv_5/conv1d/ExpandDims/dim", "op": "Const", "attr": {"value": {"tensor": {"dtype": "DT_INT32", "tensorShape": {}}}, "dtype": {"type": "DT_INT32"}}}, {"name": "rnn_classifier/Convolutions/Conv_5/conv1d/ExpandDims_1", "op": "Const", "attr": {"value": {"tensor": {"dtype": "DT_FLOAT", "tensorShape": {"dim": [{"size": "1"}, {"size": "3"}, {"size": "64"}, {"size": "96"}]}}}, "dtype": {"type": "DT_FLOAT"}}}, {"name": "Convolutions/Conv_5/biases", "op": "Const", "attr": {"dtype": {"type": "DT_FLOAT"}, "value": {"tensor": {"dtype": "DT_FLOAT", "tensorShape": {"dim": [{"size": "96"}]}}}}}, {"name": "rnn_classifier/Convolutions/strided_slice_2/stack", "op": "Const", "attr": {"value": {"tensor": {"dtype": "DT_INT32", "tensorShape": {"dim": [{"size": "2"}]}}}, "dtype": {"type": "DT_INT32"}}}, {"name": "rnn_classifier/Convolutions/strided_slice_2/stack_1", "op": "Const", "attr": {"value": {"tensor": {"dtype": "DT_INT32", "tensorShape": {"dim": [{"size": "2"}]}}}, "dtype": {"type": "DT_INT32"}}}, {"name": "rnn_classifier/Convolutions/strided_slice_2/stack_2", "op": "Const", "attr": {"dtype": {"type": "DT_INT32"}, "value": {"tensor": {"dtype": "DT_INT32", "tensorShape": {"dim": [{"size": "2"}]}}}}}, {"name": "rnn_classifier/Convolutions/Conv_6/conv1d/ExpandDims/dim", "op": "Const", "attr": {"value": {"tensor": {"dtype": "DT_INT32", "tensorShape": {}}}, "dtype": {"type": "DT_INT32"}}}, {"name": "rnn_classifier/Convolutions/Conv_6/conv1d/ExpandDims_1", "op": "Const", "attr": {"value": {"tensor": {"dtype": "DT_FLOAT", "tensorShape": {"dim": [{"size": "1"}, {"size": "5"}, {"size": "1"}, {"size": "48"}]}}}, "dtype": {"type": "DT_FLOAT"}}}, {"name": "Convolutions/Conv_6/biases", "op": "Const", "attr": {"value": {"tensor": {"dtype": "DT_FLOAT", "tensorShape": {"dim": [{"size": "48"}]}}}, "dtype": {"type": "DT_FLOAT"}}}, {"name": "rnn_classifier/Convolutions/Conv_7/conv1d/ExpandDims/dim", "op": "Const", "attr": {"dtype": {"type": "DT_INT32"}, "value": {"tensor": {"dtype": "DT_INT32", "tensorShape": {}}}}}, {"name": "rnn_classifier/Convolutions/Conv_7/conv1d/ExpandDims_1", "op": "Const", "attr": {"value": {"tensor": {"dtype": "DT_FLOAT", "tensorShape": {"dim": [{"size": "1"}, {"size": "5"}, {"size": "48"}, {"size": "64"}]}}}, "dtype": {"type": "DT_FLOAT"}}}, {"name": "Convolutions/Conv_7/biases", "op": "Const", "attr": {"value": {"tensor": {"dtype": "DT_FLOAT", "tensorShape": {"dim": [{"size": "64"}]}}}, "dtype": {"type": "DT_FLOAT"}}}, {"name": "rnn_classifier/Convolutions/Conv_8/conv1d/ExpandDims/dim", "op": "Const", "attr": {"value": {"tensor": {"dtype": "DT_INT32", "tensorShape": {}}}, "dtype": {"type": "DT_INT32"}}}, {"name": "rnn_classifier/Convolutions/Conv_8/conv1d/ExpandDims_1", "op": "Const", "attr": {"value": {"tensor": {"dtype": "DT_FLOAT", "tensorShape": {"dim": [{"size": "1"}, {"size": "3"}, {"size": "64"}, {"size": "96"}]}}}, "dtype": {"type": "DT_FLOAT"}}}, {"name": "Convolutions/Conv_8/biases", "op": "Const", "attr": {"value": {"tensor": {"dtype": "DT_FLOAT", "tensorShape": {"dim": [{"size": "96"}]}}}, "dtype": {"type": "DT_FLOAT"}}}, {"name": "rnn_classifier/Convolutions/strided_slice_3/stack", "op": "Const", "attr": {"dtype": {"type": "DT_INT32"}, "value": {"tensor": {"dtype": "DT_INT32", "tensorShape": {"dim": [{"size": "2"}]}}}}}, {"name": "rnn_classifier/Convolutions/strided_slice_3/stack_1", "op": "Const", "attr": {"dtype": {"type": "DT_INT32"}, "value": {"tensor": {"dtype": "DT_INT32", "tensorShape": {"dim": [{"size": "2"}]}}}}}, {"name": "rnn_classifier/Convolutions/strided_slice_3/stack_2", "op": "Const", "attr": {"value": {"tensor": {"dtype": "DT_INT32", "tensorShape": {"dim": [{"size": "2"}]}}}, "dtype": {"type": "DT_INT32"}}}, {"name": "rnn_classifier/Convolutions/Conv_9/conv1d/ExpandDims/dim", "op": "Const", "attr": {"value": {"tensor": {"dtype": "DT_INT32", "tensorShape": {}}}, "dtype": {"type": "DT_INT32"}}}, {"name": "rnn_classifier/Convolutions/Conv_9/conv1d/ExpandDims_1", "op": "Const", "attr": {"value": {"tensor": {"dtype": "DT_FLOAT", "tensorShape": {"dim": [{"size": "1"}, {"size": "5"}, {"size": "1"}, {"size": "48"}]}}}, "dtype": {"type": "DT_FLOAT"}}}, {"name": "Convolutions/Conv_9/biases", "op": "Const", "attr": {"value": {"tensor": {"dtype": "DT_FLOAT", "tensorShape": {"dim": [{"size": "48"}]}}}, "dtype": {"type": "DT_FLOAT"}}}, {"name": "rnn_classifier/Convolutions/Conv_10/conv1d/ExpandDims/dim", "op": "Const", "attr": {"value": {"tensor": {"dtype": "DT_INT32", "tensorShape": {}}}, "dtype": {"type": "DT_INT32"}}}, {"name": "rnn_classifier/Convolutions/Conv_10/conv1d/ExpandDims_1", "op": "Const", "attr": {"value": {"tensor": {"dtype": "DT_FLOAT", "tensorShape": {"dim": [{"size": "1"}, {"size": "5"}, {"size": "48"}, {"size": "64"}]}}}, "dtype": {"type": "DT_FLOAT"}}}, {"name": "Convolutions/Conv_10/biases", "op": "Const", "attr": {"value": {"tensor": {"dtype": "DT_FLOAT", "tensorShape": {"dim": [{"size": "64"}]}}}, "dtype": {"type": "DT_FLOAT"}}}, {"name": "rnn_classifier/Convolutions/Conv_11/conv1d/ExpandDims/dim", "op": "Const", "attr": {"value": {"tensor": {"dtype": "DT_INT32", "tensorShape": {}}}, "dtype": {"type": "DT_INT32"}}}, {"name": "rnn_classifier/Convolutions/Conv_11/conv1d/ExpandDims_1", "op": "Const", "attr": {"value": {"tensor": {"dtype": "DT_FLOAT", "tensorShape": {"dim": [{"size": "1"}, {"size": "3"}, {"size": "64"}, {"size": "96"}]}}}, "dtype": {"type": "DT_FLOAT"}}}, {"name": "Convolutions/Conv_11/biases", "op": "Const", "attr": {"value": {"tensor": {"dtype": "DT_FLOAT", "tensorShape": {"dim": [{"size": "96"}]}}}, "dtype": {"type": "DT_FLOAT"}}}, {"name": "fed_combined_input", "op": "Placeholder", "attr": {"shape": {"shape": {"dim": [{"size": "1"}, {"size": "-1"}, {"size": "5"}]}}, "dtype": {"type": "DT_FLOAT"}}}, {"name": "rnn_classifier/max_pooling/Max/reduction_indices", "op": "Const", "attr": {"dtype": {"type": "DT_INT32"}, "value": {"tensor": {"dtype": "DT_INT32", "tensorShape": {}}}}}, {"name": "fully_connected/weights", "op": "Const", "attr": {"value": {"tensor": {"dtype": "DT_FLOAT", "tensorShape": {"dim": [{"size": "256"}, {"size": "384"}]}}}, "dtype": {"type": "DT_FLOAT"}}}, {"name": "fc_to_logits/biases", "op": "Const", "attr": {"value": {"tensor": {"dtype": "DT_FLOAT", "tensorShape": {"dim": [{"size": "419"}]}}}, "dtype": {"type": "DT_FLOAT"}}}, {"name": "fully_connected/biases", "op": "Const", "attr": {"value": {"tensor": {"dtype": "DT_FLOAT", "tensorShape": {"dim": [{"size": "384"}]}}}, "dtype": {"type": "DT_FLOAT"}}}, {"name": "fully_connected_1/weights", "op": "Const", "attr": {"dtype": {"type": "DT_FLOAT"}, "value": {"tensor": {"dtype": "DT_FLOAT", "tensorShape": {"dim": [{"size": "384"}, {"size": "384"}]}}}}}, {"name": "rnn_classifier/Convolutions/strided_slice_4/stack", "op": "Const", "attr": {"value": {"tensor": {"dtype": "DT_INT32", "tensorShape": {"dim": [{"size": "2"}]}}}, "dtype": {"type": "DT_INT32"}}}, {"name": "rnn_classifier/Convolutions/strided_slice_4/stack_1", "op": "Const", "attr": {"dtype": {"type": "DT_INT32"}, "value": {"tensor": {"dtype": "DT_INT32", "tensorShape": {"dim": [{"size": "2"}]}}}}}, {"name": "rnn_classifier/Convolutions/strided_slice_4/stack_2", "op": "Const", "attr": {"dtype": {"type": "DT_INT32"}, "value": {"tensor": {"dtype": "DT_INT32", "tensorShape": {"dim": [{"size": "2"}]}}}}}, {"name": "rnn_classifier/Convolutions/Conv_12/conv1d/ExpandDims/dim", "op": "Const", "attr": {"value": {"tensor": {"dtype": "DT_INT32", "tensorShape": {}}}, "dtype": {"type": "DT_INT32"}}}, {"name": "rnn_classifier/Convolutions/Conv_12/conv1d/ExpandDims_1", "op": "Const", "attr": {"value": {"tensor": {"dtype": "DT_FLOAT", "tensorShape": {"dim": [{"size": "1"}, {"size": "5"}, {"size": "1"}, {"size": "48"}]}}}, "dtype": {"type": "DT_FLOAT"}}}, {"name": "fully_connected_1/biases", "op": "Const", "attr": {"value": {"tensor": {"dtype": "DT_FLOAT", "tensorShape": {"dim": [{"size": "384"}]}}}, "dtype": {"type": "DT_FLOAT"}}}, {"name": "Convolutions/Conv_12/biases", "op": "Const", "attr": {"dtype": {"type": "DT_FLOAT"}, "value": {"tensor": {"dtype": "DT_FLOAT", "tensorShape": {"dim": [{"size": "48"}]}}}}}, {"name": "rnn_classifier/Convolutions/Conv_13/conv1d/ExpandDims/dim", "op": "Const", "attr": {"value": {"tensor": {"dtype": "DT_INT32", "tensorShape": {}}}, "dtype": {"type": "DT_INT32"}}}, {"name": "rnn_classifier/Convolutions/Conv_13/conv1d/ExpandDims_1", "op": "Const", "attr": {"value": {"tensor": {"dtype": "DT_FLOAT", "tensorShape": {"dim": [{"size": "1"}, {"size": "5"}, {"size": "48"}, {"size": "64"}]}}}, "dtype": {"type": "DT_FLOAT"}}}, {"name": "Convolutions/Conv_13/biases", "op": "Const", "attr": {"value": {"tensor": {"dtype": "DT_FLOAT", "tensorShape": {"dim": [{"size": "64"}]}}}, "dtype": {"type": "DT_FLOAT"}}}, {"name": "rnn_classifier/Convolutions/Conv_14/conv1d/ExpandDims/dim", "op": "Const", "attr": {"value": {"tensor": {"dtype": "DT_INT32", "tensorShape": {}}}, "dtype": {"type": "DT_INT32"}}}, {"name": "rnn_classifier/Convolutions/Conv_14/conv1d/ExpandDims_1", "op": "Const", "attr": {"value": {"tensor": {"dtype": "DT_FLOAT", "tensorShape": {"dim": [{"size": "1"}, {"size": "3"}, {"size": "64"}, {"size": "96"}]}}}, "dtype": {"type": "DT_FLOAT"}}}, {"name": "Convolutions/Conv_14/biases", "op": "Const", "attr": {"value": {"tensor": {"dtype": "DT_FLOAT", "tensorShape": {"dim": [{"size": "96"}]}}}, "dtype": {"type": "DT_FLOAT"}}}, {"name": "rnn_classifier/Convolutions/concat/axis", "op": "Const", "attr": {"value": {"tensor": {"dtype": "DT_INT32", "tensorShape": {}}}, "dtype": {"type": "DT_INT32"}}}, {"name": "rnn_classifier/bidi_lstm/bidirectional_rnn/bw/bw/concat", "op": "Const", "attr": {"value": {"tensor": {"dtype": "DT_INT32", "tensorShape": {"dim": [{"size": "3"}]}}}, "dtype": {"type": "DT_INT32"}}}, {"name": "rnn_classifier/bidi_lstm/bidirectional_rnn/bw/bw/strided_slice/stack", "op": "Const", "attr": {"value": {"tensor": {"dtype": "DT_INT32", "tensorShape": {"dim": [{"size": "1"}]}}}, "dtype": {"type": "DT_INT32"}}}, {"name": "rnn_classifier/bidi_lstm/bidirectional_rnn/bw/bw/strided_slice/stack_1", "op": "Const", "attr": {"dtype": {"type": "DT_INT32"}, "value": {"tensor": {"dtype": "DT_INT32", "tensorShape": {"dim": [{"size": "1"}]}}}}}, {"name": "rnn_classifier/bidi_lstm/bidirectional_rnn/bw/bw/strided_slice/stack_2", "op": "Const", "attr": {"value": {"tensor": {"dtype": "DT_INT32", "tensorShape": {"dim": [{"size": "1"}]}}}, "dtype": {"type": "DT_INT32"}}}, {"name": "rnn_classifier/bidi_lstm/bidirectional_rnn/bw/bw/Maximum/x", "op": "Const", "attr": {"value": {"tensor": {"dtype": "DT_INT32", "tensorShape": {}}}, "dtype": {"type": "DT_INT32"}}}, {"name": "rnn_classifier/bidi_lstm/bidirectional_rnn/bw/bw/Const_4", "op": "Const", "attr": {"value": {"tensor": {"dtype": "DT_INT32", "tensorShape": {"dim": [{"size": "1"}]}}}, "dtype": {"type": "DT_INT32"}}}, {"name": "rnn_classifier/bidi_lstm/bidirectional_rnn/bw/bw/concat_2", "op": "Const", "attr": {"value": {"tensor": {"dtype": "DT_INT32", "tensorShape": {"dim": [{"size": "3"}]}}}, "dtype": {"type": "DT_INT32"}}}, {"name": "fed_input_sizes", "op": "Placeholder", "attr": {"dtype": {"type": "DT_INT32"}, "shape": {"shape": {"dim": [{"size": "1"}, {"size": "-1"}]}}}}, {"name": "rnn_classifier/compute_lengths/Sum/reduction_indices", "op": "Const", "attr": {"value": {"tensor": {"dtype": "DT_INT32", "tensorShape": {}}}, "dtype": {"type": "DT_INT32"}}}, {"name": "fc_to_logits/weights", "op": "Const", "attr": {"value": {"tensor": {"dtype": "DT_FLOAT", "tensorShape": {"dim": [{"size": "384"}, {"size": "419"}]}}}, "dtype": {"type": "DT_FLOAT"}}}, {"name": "rnn_classifier/bidi_lstm/concat/axis", "op": "Const", "attr": {"dtype": {"type": "DT_INT32"}, "value": {"tensor": {"dtype": "DT_INT32", "tensorShape": {}}}}}, {"name": "rnn_classifier/max_pooling/ones_like/Const", "op": "Const", "attr": {"dtype": {"type": "DT_FLOAT"}, "value": {"tensor": {"dtype": "DT_FLOAT", "tensorShape": {}}}}}, {"name": "rnn_classifier/bidi_lstm/bidirectional_rnn/fw/fw/while/Select/Enter", "op": "Enter", "input": ["rnn_classifier/bidi_lstm/bidirectional_rnn/fw/fw/zeros"], "attr": {"frame_name": {"s": "cm5uX2NsYXNzaWZpZXIvYmlkaV9sc3RtL2JpZGlyZWN0aW9uYWxfcm5uL2Z3L2Z3L3doaWxlL3doaWxlX2NvbnRleHQ="}, "is_constant": {"b": true}, "parallel_iterations": {"i": "32"}, "T": {"type": "DT_FLOAT"}}}, {"name": "rnn_classifier/bidi_lstm/bidirectional_rnn/fw/fw/while/Enter_3", "op": "Enter", "input": ["rnn_classifier/bidi_lstm/bidirectional_rnn/fw/fw/LSTMCellZeroState/zeros"], "attr": {"parallel_iterations": {"i": "32"}, "T": {"type": "DT_FLOAT"}, "frame_name": {"s": "cm5uX2NsYXNzaWZpZXIvYmlkaV9sc3RtL2JpZGlyZWN0aW9uYWxfcm5uL2Z3L2Z3L3doaWxlL3doaWxlX2NvbnRleHQ="}, "is_constant": {"b": false}}}, {"name": "rnn_classifier/bidi_lstm/bidirectional_rnn/fw/fw/while/Enter_4", "op": "Enter", "input": ["rnn_classifier/bidi_lstm/bidirectional_rnn/fw/fw/LSTMCellZeroState/zeros_1"], "attr": {"frame_name": {"s": "cm5uX2NsYXNzaWZpZXIvYmlkaV9sc3RtL2JpZGlyZWN0aW9uYWxfcm5uL2Z3L2Z3L3doaWxlL3doaWxlX2NvbnRleHQ="}, "is_constant": {"b": false}, "parallel_iterations": {"i": "32"}, "T": {"type": "DT_FLOAT"}}}, {"name": "rnn_classifier/bidi_lstm/bidirectional_rnn/fw/fw/while/lstm_cell/MatMul/Enter", "op": "Enter", "input": ["bidi_lstm/bidirectional_rnn/fw/lstm_cell/kernel"], "attr": {"frame_name": {"s": "cm5uX2NsYXNzaWZpZXIvYmlkaV9sc3RtL2JpZGlyZWN0aW9uYWxfcm5uL2Z3L2Z3L3doaWxlL3doaWxlX2NvbnRleHQ="}, "is_constant": {"b": true}, "parallel_iterations": {"i": "32"}, "T": {"type": "DT_FLOAT"}}}, {"name": "rnn_classifier/bidi_lstm/bidirectional_rnn/fw/fw/while/lstm_cell/BiasAdd/Enter", "op": "Enter", "input": ["bidi_lstm/bidirectional_rnn/fw/lstm_cell/bias"], "attr": {"parallel_iterations": {"i": "32"}, "T": {"type": "DT_FLOAT"}, "frame_name": {"s": "cm5uX2NsYXNzaWZpZXIvYmlkaV9sc3RtL2JpZGlyZWN0aW9uYWxfcm5uL2Z3L2Z3L3doaWxlL3doaWxlX2NvbnRleHQ="}, "is_constant": {"b": true}}}, {"name": "rnn_classifier/bidi_lstm/bidirectional_rnn/fw/fw/while/Enter_1", "op": "Enter", "input": ["rnn_classifier/bidi_lstm/bidirectional_rnn/fw/fw/time"], "attr": {"T": {"type": "DT_INT32"}, "frame_name": {"s": "cm5uX2NsYXNzaWZpZXIvYmlkaV9sc3RtL2JpZGlyZWN0aW9uYWxfcm5uL2Z3L2Z3L3doaWxlL3doaWxlX2NvbnRleHQ="}, "is_constant": {"b": false}, "parallel_iterations": {"i": "32"}}}, {"name": "rnn_classifier/bidi_lstm/bidirectional_rnn/fw/fw/while/Enter", "op": "Enter", "input": ["rnn_classifier/bidi_lstm/bidirectional_rnn/fw/fw/while/iteration_counter"], "attr": {"parallel_iterations": {"i": "32"}, "T": {"type": "DT_INT32"}, "frame_name": {"s": "cm5uX2NsYXNzaWZpZXIvYmlkaV9sc3RtL2JpZGlyZWN0aW9uYWxfcm5uL2Z3L2Z3L3doaWxlL3doaWxlX2NvbnRleHQ="}, "is_constant": {"b": false}}}, {"name": "rnn_classifier/bidi_lstm/bidirectional_rnn/bw/bw/while/Select/Enter", "op": "Enter", "input": ["rnn_classifier/bidi_lstm/bidirectional_rnn/bw/bw/zeros"], "attr": {"is_constant": {"b": true}, "parallel_iterations": {"i": "32"}, "T": {"type": "DT_FLOAT"}, "frame_name": {"s": "cm5uX2NsYXNzaWZpZXIvYmlkaV9sc3RtL2JpZGlyZWN0aW9uYWxfcm5uL2J3L2J3L3doaWxlL3doaWxlX2NvbnRleHQ="}}}, {"name": "rnn_classifier/bidi_lstm/bidirectional_rnn/bw/bw/while/Enter_3", "op": "Enter", "input": ["rnn_classifier/bidi_lstm/bidirectional_rnn/bw/bw/LSTMCellZeroState/zeros"], "attr": {"frame_name": {"s": "cm5uX2NsYXNzaWZpZXIvYmlkaV9sc3RtL2JpZGlyZWN0aW9uYWxfcm5uL2J3L2J3L3doaWxlL3doaWxlX2NvbnRleHQ="}, "is_constant": {"b": false}, "parallel_iterations": {"i": "32"}, "T": {"type": "DT_FLOAT"}}}, {"name": "rnn_classifier/bidi_lstm/bidirectional_rnn/bw/bw/while/Enter_4", "op": "Enter", "input": ["rnn_classifier/bidi_lstm/bidirectional_rnn/bw/bw/LSTMCellZeroState/zeros_1"], "attr": {"parallel_iterations": {"i": "32"}, "T": {"type": "DT_FLOAT"}, "frame_name": {"s": "cm5uX2NsYXNzaWZpZXIvYmlkaV9sc3RtL2JpZGlyZWN0aW9uYWxfcm5uL2J3L2J3L3doaWxlL3doaWxlX2NvbnRleHQ="}, "is_constant": {"b": false}}}, {"name": "rnn_classifier/bidi_lstm/bidirectional_rnn/bw/bw/while/lstm_cell/MatMul/Enter", "op": "Enter", "input": ["bidi_lstm/bidirectional_rnn/bw/lstm_cell/kernel"], "attr": {"T": {"type": "DT_FLOAT"}, "frame_name": {"s": "cm5uX2NsYXNzaWZpZXIvYmlkaV9sc3RtL2JpZGlyZWN0aW9uYWxfcm5uL2J3L2J3L3doaWxlL3doaWxlX2NvbnRleHQ="}, "is_constant": {"b": true}, "parallel_iterations": {"i": "32"}}}, {"name": "rnn_classifier/bidi_lstm/bidirectional_rnn/bw/bw/while/lstm_cell/BiasAdd/Enter", "op": "Enter", "input": ["bidi_lstm/bidirectional_rnn/bw/lstm_cell/bias"], "attr": {"frame_name": {"s": "cm5uX2NsYXNzaWZpZXIvYmlkaV9sc3RtL2JpZGlyZWN0aW9uYWxfcm5uL2J3L2J3L3doaWxlL3doaWxlX2NvbnRleHQ="}, "is_constant": {"b": true}, "parallel_iterations": {"i": "32"}, "T": {"type": "DT_FLOAT"}}}, {"name": "rnn_classifier/bidi_lstm/bidirectional_rnn/bw/bw/while/Enter_1", "op": "Enter", "input": ["rnn_classifier/bidi_lstm/bidirectional_rnn/bw/bw/time"], "attr": {"frame_name": {"s": "cm5uX2NsYXNzaWZpZXIvYmlkaV9sc3RtL2JpZGlyZWN0aW9uYWxfcm5uL2J3L2J3L3doaWxlL3doaWxlX2NvbnRleHQ="}, "is_constant": {"b": false}, "parallel_iterations": {"i": "32"}, "T": {"type": "DT_INT32"}}}, {"name": "rnn_classifier/bidi_lstm/bidirectional_rnn/bw/bw/while/Enter", "op": "Enter", "input": ["rnn_classifier/bidi_lstm/bidirectional_rnn/bw/bw/while/iteration_counter"], "attr": {"frame_name": {"s": "cm5uX2NsYXNzaWZpZXIvYmlkaV9sc3RtL2JpZGlyZWN0aW9uYWxfcm5uL2J3L2J3L3doaWxlL3doaWxlX2NvbnRleHQ="}, "is_constant": {"b": false}, "parallel_iterations": {"i": "32"}, "T": {"type": "DT_INT32"}}}, {"name": "rnn_classifier/Convolutions/strided_slice", "op": "StridedSlice", "input": ["fed_combined_input", "rnn_classifier/Convolutions/strided_slice/stack", "rnn_classifier/Convolutions/strided_slice/stack_1", "rnn_classifier/Convolutions/strided_slice/stack_2"], "attr": {"begin_mask": {"i": "0"}, "shrink_axis_mask": {"i": "0"}, "ellipsis_mask": {"i": "1"}, "end_mask": {"i": "0"}, "Index": {"type": "DT_INT32"}, "new_axis_mask": {"i": "0"}, "T": {"type": "DT_FLOAT"}}}, {"name": "rnn_classifier/Convolutions/strided_slice_1", "op": "StridedSlice", "input": ["fed_combined_input", "rnn_classifier/Convolutions/strided_slice_1/stack", "rnn_classifier/Convolutions/strided_slice_1/stack_1", "rnn_classifier/Convolutions/strided_slice_1/stack_2"], "attr": {"ellipsis_mask": {"i": "1"}, "end_mask": {"i": "0"}, "Index": {"type": "DT_INT32"}, "new_axis_mask": {"i": "0"}, "T": {"type": "DT_FLOAT"}, "begin_mask": {"i": "0"}, "shrink_axis_mask": {"i": "0"}}}, {"name": "rnn_classifier/Convolutions/strided_slice_2", "op": "StridedSlice", "input": ["fed_combined_input", "rnn_classifier/Convolutions/strided_slice_2/stack", "rnn_classifier/Convolutions/strided_slice_2/stack_1", "rnn_classifier/Convolutions/strided_slice_2/stack_2"], "attr": {"begin_mask": {"i": "0"}, "shrink_axis_mask": {"i": "0"}, "ellipsis_mask": {"i": "1"}, "end_mask": {"i": "0"}, "Index": {"type": "DT_INT32"}, "new_axis_mask": {"i": "0"}, "T": {"type": "DT_FLOAT"}}}, {"name": "rnn_classifier/Convolutions/strided_slice_3", "op": "StridedSlice", "input": ["fed_combined_input", "rnn_classifier/Convolutions/strided_slice_3/stack", "rnn_classifier/Convolutions/strided_slice_3/stack_1", "rnn_classifier/Convolutions/strided_slice_3/stack_2"], "attr": {"shrink_axis_mask": {"i": "0"}, "ellipsis_mask": {"i": "1"}, "end_mask": {"i": "0"}, "Index": {"type": "DT_INT32"}, "new_axis_mask": {"i": "0"}, "T": {"type": "DT_FLOAT"}, "begin_mask": {"i": "0"}}}, {"name": "rnn_classifier/Convolutions/strided_slice_4", "op": "StridedSlice", "input": ["fed_combined_input", "rnn_classifier/Convolutions/strided_slice_4/stack", "rnn_classifier/Convolutions/strided_slice_4/stack_1", "rnn_classifier/Convolutions/strided_slice_4/stack_2"], "attr": {"begin_mask": {"i": "0"}, "shrink_axis_mask": {"i": "0"}, "ellipsis_mask": {"i": "1"}, "end_mask": {"i": "0"}, "Index": {"type": "DT_INT32"}, "new_axis_mask": {"i": "0"}, "T": {"type": "DT_FLOAT"}}}, {"name": "rnn_classifier/compute_lengths/Sum", "op": "Sum", "input": ["fed_input_sizes", "rnn_classifier/compute_lengths/Sum/reduction_indices"], "attr": {"Tidx": {"type": "DT_INT32"}, "keep_dims": {"b": false}, "T": {"type": "DT_INT32"}}}, {"name": "ConstantFolding/rnn_classifier/bidi_lstm/bidirectional_rnn/fw/fw/zeros_enter", "op": "Const", "input": ["^rnn_classifier/bidi_lstm/bidirectional_rnn/fw/fw/while/Select/Enter"], "attr": {"dtype": {"type": "DT_FLOAT"}, "value": {"tensor": {"dtype": "DT_FLOAT", "tensorShape": {"dim": [{"size": "1"}, {"size": "128"}]}}}}}, {"name": "rnn_classifier/bidi_lstm/bidirectional_rnn/fw/fw/while/Merge_3", "op": "Merge", "input": ["rnn_classifier/bidi_lstm/bidirectional_rnn/fw/fw/while/Enter_3", "rnn_classifier/bidi_lstm/bidirectional_rnn/fw/fw/while/NextIteration_3"], "attr": {"N": {"i": "2"}, "T": {"type": "DT_FLOAT"}}}, {"name": "rnn_classifier/bidi_lstm/bidirectional_rnn/fw/fw/while/Merge_4", "op": "Merge", "input": ["rnn_classifier/bidi_lstm/bidirectional_rnn/fw/fw/while/Enter_4", "rnn_classifier/bidi_lstm/bidirectional_rnn/fw/fw/while/NextIteration_4"], "attr": {"N": {"i": "2"}, "T": {"type": "DT_FLOAT"}}}, {"name": "ConstantFolding/bidi_lstm/bidirectional_rnn/fw/lstm_cell/kernel_enter", "op": "Const", "input": ["^rnn_classifier/bidi_lstm/bidirectional_rnn/fw/fw/while/lstm_cell/MatMul/Enter"], "attr": {"value": {"tensor": {"dtype": "DT_FLOAT", "tensorShape": {"dim": [{"size": "608"}, {"size": "512"}]}}}, "dtype": {"type": "DT_FLOAT"}}}, {"name": "ConstantFolding/bidi_lstm/bidirectional_rnn/fw/lstm_cell/bias_enter", "op": "Const", "input": ["^rnn_classifier/bidi_lstm/bidirectional_rnn/fw/fw/while/lstm_cell/BiasAdd/Enter"], "attr": {"dtype": {"type": "DT_FLOAT"}, "value": {"tensor": {"dtype": "DT_FLOAT", "tensorShape": {"dim": [{"size": "512"}]}}}}}, {"name": "rnn_classifier/bidi_lstm/bidirectional_rnn/fw/fw/while/Merge_1", "op": "Merge", "input": ["rnn_classifier/bidi_lstm/bidirectional_rnn/fw/fw/while/Enter_1", "rnn_classifier/bidi_lstm/bidirectional_rnn/fw/fw/while/NextIteration_1"], "attr": {"N": {"i": "2"}, "T": {"type": "DT_INT32"}}}, {"name": "rnn_classifier/bidi_lstm/bidirectional_rnn/fw/fw/while/Merge", "op": "Merge", "input": ["rnn_classifier/bidi_lstm/bidirectional_rnn/fw/fw/while/Enter", "rnn_classifier/bidi_lstm/bidirectional_rnn/fw/fw/while/NextIteration"], "attr": {"N": {"i": "2"}, "T": {"type": "DT_INT32"}}}, {"name": "ConstantFolding/rnn_classifier/bidi_lstm/bidirectional_rnn/bw/bw/zeros_enter", "op": "Const", "input": ["^rnn_classifier/bidi_lstm/bidirectional_rnn/bw/bw/while/Select/Enter"], "attr": {"dtype": {"type": "DT_FLOAT"}, "value": {"tensor": {"dtype": "DT_FLOAT", "tensorShape": {"dim": [{"size": "1"}, {"size": "128"}]}}}}}, {"name": "rnn_classifier/bidi_lstm/bidirectional_rnn/bw/bw/while/Merge_3", "op": "Merge", "input": ["rnn_classifier/bidi_lstm/bidirectional_rnn/bw/bw/while/Enter_3", "rnn_classifier/bidi_lstm/bidirectional_rnn/bw/bw/while/NextIteration_3"], "attr": {"N": {"i": "2"}, "T": {"type": "DT_FLOAT"}}}, {"name": "rnn_classifier/bidi_lstm/bidirectional_rnn/bw/bw/while/Merge_4", "op": "Merge", "input": ["rnn_classifier/bidi_lstm/bidirectional_rnn/bw/bw/while/Enter_4", "rnn_classifier/bidi_lstm/bidirectional_rnn/bw/bw/while/NextIteration_4"], "attr": {"N": {"i": "2"}, "T": {"type": "DT_FLOAT"}}}, {"name": "ConstantFolding/bidi_lstm/bidirectional_rnn/bw/lstm_cell/kernel_enter", "op": "Const", "input": ["^rnn_classifier/bidi_lstm/bidirectional_rnn/bw/bw/while/lstm_cell/MatMul/Enter"], "attr": {"value": {"tensor": {"dtype": "DT_FLOAT", "tensorShape": {"dim": [{"size": "608"}, {"size": "512"}]}}}, "dtype": {"type": "DT_FLOAT"}}}, {"name": "ConstantFolding/bidi_lstm/bidirectional_rnn/bw/lstm_cell/bias_enter", "op": "Const", "input": ["^rnn_classifier/bidi_lstm/bidirectional_rnn/bw/bw/while/lstm_cell/BiasAdd/Enter"], "attr": {"value": {"tensor": {"dtype": "DT_FLOAT", "tensorShape": {"dim": [{"size": "512"}]}}}, "dtype": {"type": "DT_FLOAT"}}}, {"name": "rnn_classifier/bidi_lstm/bidirectional_rnn/bw/bw/while/Merge_1", "op": "Merge", "input": ["rnn_classifier/bidi_lstm/bidirectional_rnn/bw/bw/while/Enter_1", "rnn_classifier/bidi_lstm/bidirectional_rnn/bw/bw/while/NextIteration_1"], "attr": {"N": {"i": "2"}, "T": {"type": "DT_INT32"}}}, {"name": "rnn_classifier/bidi_lstm/bidirectional_rnn/bw/bw/while/Merge", "op": "Merge", "input": ["rnn_classifier/bidi_lstm/bidirectional_rnn/bw/bw/while/Enter", "rnn_classifier/bidi_lstm/bidirectional_rnn/bw/bw/while/NextIteration"], "attr": {"N": {"i": "2"}, "T": {"type": "DT_INT32"}}}, {"name": "rnn_classifier/Convolutions/Conv/conv1d/ExpandDims", "op": "ExpandDims", "input": ["rnn_classifier/Convolutions/strided_slice", "rnn_classifier/Convolutions/Conv/conv1d/ExpandDims/dim"], "attr": {"T": {"type": "DT_FLOAT"}, "Tdim": {"type": "DT_INT32"}}}, {"name": "rnn_classifier/Convolutions/Conv_3/conv1d/ExpandDims", "op": "ExpandDims", "input": ["rnn_classifier/Convolutions/strided_slice_1", "rnn_classifier/Convolutions/Conv_3/conv1d/ExpandDims/dim"], "attr": {"T": {"type": "DT_FLOAT"}, "Tdim": {"type": "DT_INT32"}}}, {"name": "rnn_classifier/Convolutions/Conv_6/conv1d/ExpandDims", "op": "ExpandDims", "input": ["rnn_classifier/Convolutions/strided_slice_2", "rnn_classifier/Convolutions/Conv_6/conv1d/ExpandDims/dim"], "attr": {"T": {"type": "DT_FLOAT"}, "Tdim": {"type": "DT_INT32"}}}, {"name": "rnn_classifier/Convolutions/Conv_9/conv1d/ExpandDims", "op": "ExpandDims", "input": ["rnn_classifier/Convolutions/strided_slice_3", "rnn_classifier/Convolutions/Conv_9/conv1d/ExpandDims/dim"], "attr": {"T": {"type": "DT_FLOAT"}, "Tdim": {"type": "DT_INT32"}}}, {"name": "rnn_classifier/Convolutions/Conv_12/conv1d/ExpandDims", "op": "ExpandDims", "input": ["rnn_classifier/Convolutions/strided_slice_4", "rnn_classifier/Convolutions/Conv_12/conv1d/ExpandDims/dim"], "attr": {"T": {"type": "DT_FLOAT"}, "Tdim": {"type": "DT_INT32"}}}, {"name": "rnn_classifier/max_pooling/SequenceMask/Max", "op": "Max", "input": ["rnn_classifier/compute_lengths/Sum", "rnn_classifier/max_pooling/SequenceMask/Const"], "attr": {"Tidx": {"type": "DT_INT32"}, "keep_dims": {"b": false}, "T": {"type": "DT_INT32"}}}, {"name": "rnn_classifier/max_pooling/SequenceMask/ExpandDims", "op": "ExpandDims", "input": ["rnn_classifier/compute_lengths/Sum", "rnn_classifier/max_pooling/SequenceMask/ExpandDims/dim"], "attr": {"Tdim": {"type": "DT_INT32"}, "T": {"type": "DT_INT32"}}}, {"name": "rnn_classifier/bidi_lstm/bidirectional_rnn/fw/fw/while/GreaterEqual/Enter", "op": "Enter", "input": ["rnn_classifier/compute_lengths/Sum"], "attr": {"frame_name": {"s": "cm5uX2NsYXNzaWZpZXIvYmlkaV9sc3RtL2JpZGlyZWN0aW9uYWxfcm5uL2Z3L2Z3L3doaWxlL3doaWxlX2NvbnRleHQ="}, "is_constant": {"b": true}, "parallel_iterations": {"i": "32"}, "T": {"type": "DT_INT32"}}}, {"name": "rnn_classifier/bidi_lstm/bidirectional_rnn/fw/fw/Max", "op": "Max", "input": ["rnn_classifier/compute_lengths/Sum", "rnn_classifier/bidi_lstm/bidirectional_rnn/fw/fw/Const_4"], "attr": {"T": {"type": "DT_INT32"}, "Tidx": {"type": "DT_INT32"}, "keep_dims": {"b": false}}}, {"name": "rnn_classifier/bidi_lstm/bidirectional_rnn/bw/bw/while/GreaterEqual/Enter", "op": "Enter", "input": ["rnn_classifier/compute_lengths/Sum"], "attr": {"parallel_iterations": {"i": "32"}, "T": {"type": "DT_INT32"}, "frame_name": {"s": "cm5uX2NsYXNzaWZpZXIvYmlkaV9sc3RtL2JpZGlyZWN0aW9uYWxfcm5uL2J3L2J3L3doaWxlL3doaWxlX2NvbnRleHQ="}, "is_constant": {"b": true}}}, {"name": "rnn_classifier/bidi_lstm/bidirectional_rnn/bw/bw/Max", "op": "Max", "input": ["rnn_classifier/compute_lengths/Sum", "rnn_classifier/bidi_lstm/bidirectional_rnn/bw/bw/Const_4"], "attr": {"Tidx": {"type": "DT_INT32"}, "keep_dims": {"b": false}, "T": {"type": "DT_INT32"}}}, {"name": "rnn_classifier/Convolutions/Conv/conv1d", "op": "_FusedConv2D", "input": ["rnn_classifier/Convolutions/Conv/conv1d/ExpandDims", "rnn_classifier/Convolutions/Conv/conv1d/ExpandDims_1", "Convolutions/Conv/biases"], "device": "/device:CPU:0", "attr": {"epsilon": {"f": 0.0}, "T": {"type": "DT_FLOAT"}, "strides": {"list": {"i": ["1", "1", "1", "1"]}}, "data_format": {"s": "TkhXQw=="}, "num_args": {"i": "1"}, "explicit_paddings": {"list": {}}, "fused_ops": {"list": {"s": ["Qmlhc0FkZA=="]}}, "use_cudnn_on_gpu": {"b": true}, "padding": {"s": "U0FNRQ=="}, "dilations": {"list": {"i": ["1", "1", "1", "1"]}}}}, {"name": "rnn_classifier/Convolutions/Conv_3/conv1d", "op": "_FusedConv2D", "input": ["rnn_classifier/Convolutions/Conv_3/conv1d/ExpandDims", "rnn_classifier/Convolutions/Conv_3/conv1d/ExpandDims_1", "Convolutions/Conv_3/biases"], "device": "/device:CPU:0", "attr": {"padding": {"s": "U0FNRQ=="}, "dilations": {"list": {"i": ["1", "1", "1", "1"]}}, "epsilon": {"f": 0.0}, "strides": {"list": {"i": ["1", "1", "1", "1"]}}, "T": {"type": "DT_FLOAT"}, "data_format": {"s": "TkhXQw=="}, "explicit_paddings": {"list": {}}, "num_args": {"i": "1"}, "fused_ops": {"list": {"s": ["Qmlhc0FkZA=="]}}, "use_cudnn_on_gpu": {"b": true}}}, {"name": "rnn_classifier/Convolutions/Conv_6/conv1d", "op": "_FusedConv2D", "input": ["rnn_classifier/Convolutions/Conv_6/conv1d/ExpandDims", "rnn_classifier/Convolutions/Conv_6/conv1d/ExpandDims_1", "Convolutions/Conv_6/biases"], "device": "/device:CPU:0", "attr": {"use_cudnn_on_gpu": {"b": true}, "padding": {"s": "U0FNRQ=="}, "dilations": {"list": {"i": ["1", "1", "1", "1"]}}, "epsilon": {"f": 0.0}, "strides": {"list": {"i": ["1", "1", "1", "1"]}}, "T": {"type": "DT_FLOAT"}, "data_format": {"s": "TkhXQw=="}, "explicit_paddings": {"list": {}}, "num_args": {"i": "1"}, "fused_ops": {"list": {"s": ["Qmlhc0FkZA=="]}}}}, {"name": "rnn_classifier/Convolutions/Conv_9/conv1d", "op": "_FusedConv2D", "input": ["rnn_classifier/Convolutions/Conv_9/conv1d/ExpandDims", "rnn_classifier/Convolutions/Conv_9/conv1d/ExpandDims_1", "Convolutions/Conv_9/biases"], "device": "/device:CPU:0", "attr": {"padding": {"s": "U0FNRQ=="}, "dilations": {"list": {"i": ["1", "1", "1", "1"]}}, "epsilon": {"f": 0.0}, "strides": {"list": {"i": ["1", "1", "1", "1"]}}, "T": {"type": "DT_FLOAT"}, "data_format": {"s": "TkhXQw=="}, "explicit_paddings": {"list": {}}, "num_args": {"i": "1"}, "fused_ops": {"list": {"s": ["Qmlhc0FkZA=="]}}, "use_cudnn_on_gpu": {"b": true}}}, {"name": "rnn_classifier/Convolutions/Conv_12/conv1d", "op": "_FusedConv2D", "input": ["rnn_classifier/Convolutions/Conv_12/conv1d/ExpandDims", "rnn_classifier/Convolutions/Conv_12/conv1d/ExpandDims_1", "Convolutions/Conv_12/biases"], "device": "/device:CPU:0", "attr": {"strides": {"list": {"i": ["1", "1", "1", "1"]}}, "T": {"type": "DT_FLOAT"}, "data_format": {"s": "TkhXQw=="}, "explicit_paddings": {"list": {}}, "num_args": {"i": "1"}, "fused_ops": {"list": {"s": ["Qmlhc0FkZA=="]}}, "use_cudnn_on_gpu": {"b": true}, "padding": {"s": "U0FNRQ=="}, "dilations": {"list": {"i": ["1", "1", "1", "1"]}}, "epsilon": {"f": 0.0}}}, {"name": "rnn_classifier/max_pooling/SequenceMask/Maximum", "op": "Maximum", "input": ["rnn_classifier/max_pooling/SequenceMask/Const_1", "rnn_classifier/max_pooling/SequenceMask/Max"], "attr": {"T": {"type": "DT_INT32"}}}, {"name": "rnn_classifier/bidi_lstm/bidirectional_rnn/fw/fw/Maximum", "op": "Maximum", "input": ["rnn_classifier/bidi_lstm/bidirectional_rnn/fw/fw/Maximum/x", "rnn_classifier/bidi_lstm/bidirectional_rnn/fw/fw/Max"], "attr": {"T": {"type": "DT_INT32"}}}, {"name": "rnn_classifier/bidi_lstm/bidirectional_rnn/bw/bw/Maximum", "op": "Maximum", "input": ["rnn_classifier/bidi_lstm/bidirectional_rnn/bw/bw/Maximum/x", "rnn_classifier/bidi_lstm/bidirectional_rnn/bw/bw/Max"], "attr": {"T": {"type": "DT_INT32"}}}, {"name": "rnn_classifier/Convolutions/Conv/BiasAdd", "op": "Squeeze", "input": ["rnn_classifier/Convolutions/Conv/conv1d"], "attr": {"T": {"type": "DT_FLOAT"}, "squeeze_dims": {"list": {"i": ["1"]}}}}, {"name": "rnn_classifier/Convolutions/Conv_3/BiasAdd", "op": "Squeeze", "input": ["rnn_classifier/Convolutions/Conv_3/conv1d"], "attr": {"T": {"type": "DT_FLOAT"}, "squeeze_dims": {"list": {"i": ["1"]}}}}, {"name": "rnn_classifier/Convolutions/Conv_6/BiasAdd", "op": "Squeeze", "input": ["rnn_classifier/Convolutions/Conv_6/conv1d"], "attr": {"T": {"type": "DT_FLOAT"}, "squeeze_dims": {"list": {"i": ["1"]}}}}, {"name": "rnn_classifier/Convolutions/Conv_9/BiasAdd", "op": "Squeeze", "input": ["rnn_classifier/Convolutions/Conv_9/conv1d"], "attr": {"T": {"type": "DT_FLOAT"}, "squeeze_dims": {"list": {"i": ["1"]}}}}, {"name": "rnn_classifier/Convolutions/Conv_12/BiasAdd", "op": "Squeeze", "input": ["rnn_classifier/Convolutions/Conv_12/conv1d"], "attr": {"T": {"type": "DT_FLOAT"}, "squeeze_dims": {"list": {"i": ["1"]}}}}, {"name": "rnn_classifier/max_pooling/SequenceMask/Range", "op": "Range", "input": ["rnn_classifier/max_pooling/SequenceMask/Const_2", "rnn_classifier/max_pooling/SequenceMask/Maximum", "rnn_classifier/max_pooling/SequenceMask/Const_3"], "attr": {"Tidx": {"type": "DT_INT32"}}}, {"name": "rnn_classifier/Convolutions/Conv/Relu", "op": "Relu", "input": ["rnn_classifier/Convolutions/Conv/BiasAdd"], "attr": {"T": {"type": "DT_FLOAT"}}}, {"name": "rnn_classifier/Convolutions/Conv_3/Relu", "op": "Relu", "input": ["rnn_classifier/Convolutions/Conv_3/BiasAdd"], "attr": {"T": {"type": "DT_FLOAT"}}}, {"name": "rnn_classifier/Convolutions/Conv_6/Relu", "op": "Relu", "input": ["rnn_classifier/Convolutions/Conv_6/BiasAdd"], "attr": {"T": {"type": "DT_FLOAT"}}}, {"name": "rnn_classifier/Convolutions/Conv_9/Relu", "op": "Relu", "input": ["rnn_classifier/Convolutions/Conv_9/BiasAdd"], "attr": {"T": {"type": "DT_FLOAT"}}}, {"name": "rnn_classifier/Convolutions/Conv_12/Relu", "op": "Relu", "input": ["rnn_classifier/Convolutions/Conv_12/BiasAdd"], "attr": {"T": {"type": "DT_FLOAT"}}}, {"name": "rnn_classifier/max_pooling/SequenceMask/Less", "op": "Less", "input": ["rnn_classifier/max_pooling/SequenceMask/Range", "rnn_classifier/max_pooling/SequenceMask/ExpandDims"], "attr": {"T": {"type": "DT_INT32"}}}, {"name": "rnn_classifier/Convolutions/Conv_1/conv1d/ExpandDims", "op": "ExpandDims", "input": ["rnn_classifier/Convolutions/Conv/Relu", "rnn_classifier/Convolutions/Conv_1/conv1d/ExpandDims/dim"], "attr": {"T": {"type": "DT_FLOAT"}, "Tdim": {"type": "DT_INT32"}}}, {"name": "rnn_classifier/Convolutions/Conv_4/conv1d/ExpandDims", "op": "ExpandDims", "input": ["rnn_classifier/Convolutions/Conv_3/Relu", "rnn_classifier/Convolutions/Conv_4/conv1d/ExpandDims/dim"], "attr": {"Tdim": {"type": "DT_INT32"}, "T": {"type": "DT_FLOAT"}}}, {"name": "rnn_classifier/Convolutions/Conv_7/conv1d/ExpandDims", "op": "ExpandDims", "input": ["rnn_classifier/Convolutions/Conv_6/Relu", "rnn_classifier/Convolutions/Conv_7/conv1d/ExpandDims/dim"], "attr": {"T": {"type": "DT_FLOAT"}, "Tdim": {"type": "DT_INT32"}}}, {"name": "rnn_classifier/Convolutions/Conv_10/conv1d/ExpandDims", "op": "ExpandDims", "input": ["rnn_classifier/Convolutions/Conv_9/Relu", "rnn_classifier/Convolutions/Conv_10/conv1d/ExpandDims/dim"], "attr": {"Tdim": {"type": "DT_INT32"}, "T": {"type": "DT_FLOAT"}}}, {"name": "rnn_classifier/Convolutions/Conv_13/conv1d/ExpandDims", "op": "ExpandDims", "input": ["rnn_classifier/Convolutions/Conv_12/Relu", "rnn_classifier/Convolutions/Conv_13/conv1d/ExpandDims/dim"], "attr": {"T": {"type": "DT_FLOAT"}, "Tdim": {"type": "DT_INT32"}}}, {"name": "rnn_classifier/max_pooling/ExpandDims", "op": "ExpandDims", "input": ["rnn_classifier/max_pooling/SequenceMask/Less", "rnn_classifier/max_pooling/ExpandDims/dim"], "attr": {"T": {"type": "DT_BOOL"}, "Tdim": {"type": "DT_INT32"}}}, {"name": "rnn_classifier/Convolutions/Conv_1/conv1d", "op": "_FusedConv2D", "input": ["rnn_classifier/Convolutions/Conv_1/conv1d/ExpandDims", "rnn_classifier/Convolutions/Conv_1/conv1d/ExpandDims_1", "Convolutions/Conv_1/biases"], "device": "/device:CPU:0", "attr": {"strides": {"list": {"i": ["1", "1", "1", "1"]}}, "T": {"type": "DT_FLOAT"}, "data_format": {"s": "TkhXQw=="}, "explicit_paddings": {"list": {}}, "num_args": {"i": "1"}, "fused_ops": {"list": {"s": ["Qmlhc0FkZA=="]}}, "use_cudnn_on_gpu": {"b": true}, "padding": {"s": "U0FNRQ=="}, "dilations": {"list": {"i": ["1", "1", "1", "1"]}}, "epsilon": {"f": 0.0}}}, {"name": "rnn_classifier/Convolutions/Conv_4/conv1d", "op": "_FusedConv2D", "input": ["rnn_classifier/Convolutions/Conv_4/conv1d/ExpandDims", "rnn_classifier/Convolutions/Conv_4/conv1d/ExpandDims_1", "Convolutions/Conv_4/biases"], "device": "/device:CPU:0", "attr": {"num_args": {"i": "1"}, "explicit_paddings": {"list": {}}, "fused_ops": {"list": {"s": ["Qmlhc0FkZA=="]}}, "use_cudnn_on_gpu": {"b": true}, "padding": {"s": "U0FNRQ=="}, "dilations": {"list": {"i": ["1", "1", "1", "1"]}}, "epsilon": {"f": 0.0}, "strides": {"list": {"i": ["1", "1", "1", "1"]}}, "T": {"type": "DT_FLOAT"}, "data_format": {"s": "TkhXQw=="}}}, {"name": "rnn_classifier/Convolutions/Conv_7/conv1d", "op": "_FusedConv2D", "input": ["rnn_classifier/Convolutions/Conv_7/conv1d/ExpandDims", "rnn_classifier/Convolutions/Conv_7/conv1d/ExpandDims_1", "Convolutions/Conv_7/biases"], "device": "/device:CPU:0", "attr": {"padding": {"s": "U0FNRQ=="}, "dilations": {"list": {"i": ["1", "1", "1", "1"]}}, "epsilon": {"f": 0.0}, "strides": {"list": {"i": ["1", "1", "1", "1"]}}, "T": {"type": "DT_FLOAT"}, "data_format": {"s": "TkhXQw=="}, "explicit_paddings": {"list": {}}, "num_args": {"i": "1"}, "fused_ops": {"list": {"s": ["Qmlhc0FkZA=="]}}, "use_cudnn_on_gpu": {"b": true}}}, {"name": "rnn_classifier/Convolutions/Conv_10/conv1d", "op": "_FusedConv2D", "input": ["rnn_classifier/Convolutions/Conv_10/conv1d/ExpandDims", "rnn_classifier/Convolutions/Conv_10/conv1d/ExpandDims_1", "Convolutions/Conv_10/biases"], "device": "/device:CPU:0", "attr": {"padding": {"s": "U0FNRQ=="}, "dilations": {"list": {"i": ["1", "1", "1", "1"]}}, "epsilon": {"f": 0.0}, "strides": {"list": {"i": ["1", "1", "1", "1"]}}, "T": {"type": "DT_FLOAT"}, "data_format": {"s": "TkhXQw=="}, "explicit_paddings": {"list": {}}, "num_args": {"i": "1"}, "fused_ops": {"list": {"s": ["Qmlhc0FkZA=="]}}, "use_cudnn_on_gpu": {"b": true}}}, {"name": "rnn_classifier/Convolutions/Conv_13/conv1d", "op": "_FusedConv2D", "input": ["rnn_classifier/Convolutions/Conv_13/conv1d/ExpandDims", "rnn_classifier/Convolutions/Conv_13/conv1d/ExpandDims_1", "Convolutions/Conv_13/biases"], "device": "/device:CPU:0", "attr": {"use_cudnn_on_gpu": {"b": true}, "padding": {"s": "U0FNRQ=="}, "dilations": {"list": {"i": ["1", "1", "1", "1"]}}, "epsilon": {"f": 0.0}, "strides": {"list": {"i": ["1", "1", "1", "1"]}}, "T": {"type": "DT_FLOAT"}, "data_format": {"s": "TkhXQw=="}, "explicit_paddings": {"list": {}}, "num_args": {"i": "1"}, "fused_ops": {"list": {"s": ["Qmlhc0FkZA=="]}}}}, {"name": "rnn_classifier/Convolutions/Conv_1/BiasAdd", "op": "Squeeze", "input": ["rnn_classifier/Convolutions/Conv_1/conv1d"], "attr": {"T": {"type": "DT_FLOAT"}, "squeeze_dims": {"list": {"i": ["1"]}}}}, {"name": "rnn_classifier/Convolutions/Conv_4/BiasAdd", "op": "Squeeze", "input": ["rnn_classifier/Convolutions/Conv_4/conv1d"], "attr": {"T": {"type": "DT_FLOAT"}, "squeeze_dims": {"list": {"i": ["1"]}}}}, {"name": "rnn_classifier/Convolutions/Conv_7/BiasAdd", "op": "Squeeze", "input": ["rnn_classifier/Convolutions/Conv_7/conv1d"], "attr": {"T": {"type": "DT_FLOAT"}, "squeeze_dims": {"list": {"i": ["1"]}}}}, {"name": "rnn_classifier/Convolutions/Conv_10/BiasAdd", "op": "Squeeze", "input": ["rnn_classifier/Convolutions/Conv_10/conv1d"], "attr": {"T": {"type": "DT_FLOAT"}, "squeeze_dims": {"list": {"i": ["1"]}}}}, {"name": "rnn_classifier/Convolutions/Conv_13/BiasAdd", "op": "Squeeze", "input": ["rnn_classifier/Convolutions/Conv_13/conv1d"], "attr": {"T": {"type": "DT_FLOAT"}, "squeeze_dims": {"list": {"i": ["1"]}}}}, {"name": "rnn_classifier/Convolutions/Conv_1/Relu", "op": "Relu", "input": ["rnn_classifier/Convolutions/Conv_1/BiasAdd"], "attr": {"T": {"type": "DT_FLOAT"}}}, {"name": "rnn_classifier/Convolutions/Conv_4/Relu", "op": "Relu", "input": ["rnn_classifier/Convolutions/Conv_4/BiasAdd"], "attr": {"T": {"type": "DT_FLOAT"}}}, {"name": "rnn_classifier/Convolutions/Conv_7/Relu", "op": "Relu", "input": ["rnn_classifier/Convolutions/Conv_7/BiasAdd"], "attr": {"T": {"type": "DT_FLOAT"}}}, {"name": "rnn_classifier/Convolutions/Conv_10/Relu", "op": "Relu", "input": ["rnn_classifier/Convolutions/Conv_10/BiasAdd"], "attr": {"T": {"type": "DT_FLOAT"}}}, {"name": "rnn_classifier/Convolutions/Conv_13/Relu", "op": "Relu", "input": ["rnn_classifier/Convolutions/Conv_13/BiasAdd"], "attr": {"T": {"type": "DT_FLOAT"}}}, {"name": "rnn_classifier/Convolutions/Conv_2/conv1d/ExpandDims", "op": "ExpandDims", "input": ["rnn_classifier/Convolutions/Conv_1/Relu", "rnn_classifier/Convolutions/Conv_2/conv1d/ExpandDims/dim"], "attr": {"T": {"type": "DT_FLOAT"}, "Tdim": {"type": "DT_INT32"}}}, {"name": "rnn_classifier/Convolutions/Conv_5/conv1d/ExpandDims", "op": "ExpandDims", "input": ["rnn_classifier/Convolutions/Conv_4/Relu", "rnn_classifier/Convolutions/Conv_5/conv1d/ExpandDims/dim"], "attr": {"T": {"type": "DT_FLOAT"}, "Tdim": {"type": "DT_INT32"}}}, {"name": "rnn_classifier/Convolutions/Conv_8/conv1d/ExpandDims", "op": "ExpandDims", "input": ["rnn_classifier/Convolutions/Conv_7/Relu", "rnn_classifier/Convolutions/Conv_8/conv1d/ExpandDims/dim"], "attr": {"T": {"type": "DT_FLOAT"}, "Tdim": {"type": "DT_INT32"}}}, {"name": "rnn_classifier/Convolutions/Conv_11/conv1d/ExpandDims", "op": "ExpandDims", "input": ["rnn_classifier/Convolutions/Conv_10/Relu", "rnn_classifier/Convolutions/Conv_11/conv1d/ExpandDims/dim"], "attr": {"T": {"type": "DT_FLOAT"}, "Tdim": {"type": "DT_INT32"}}}, {"name": "rnn_classifier/Convolutions/Conv_14/conv1d/ExpandDims", "op": "ExpandDims", "input": ["rnn_classifier/Convolutions/Conv_13/Relu", "rnn_classifier/Convolutions/Conv_14/conv1d/ExpandDims/dim"], "attr": {"T": {"type": "DT_FLOAT"}, "Tdim": {"type": "DT_INT32"}}}, {"name": "rnn_classifier/Convolutions/Conv_2/conv1d", "op": "_FusedConv2D", "input": ["rnn_classifier/Convolutions/Conv_2/conv1d/ExpandDims", "rnn_classifier/Convolutions/Conv_2/conv1d/ExpandDims_1", "Convolutions/Conv_2/biases"], "device": "/device:CPU:0", "attr": {"epsilon": {"f": 0.0}, "strides": {"list": {"i": ["1", "1", "1", "1"]}}, "T": {"type": "DT_FLOAT"}, "data_format": {"s": "TkhXQw=="}, "explicit_paddings": {"list": {}}, "num_args": {"i": "1"}, "fused_ops": {"list": {"s": ["Qmlhc0FkZA=="]}}, "use_cudnn_on_gpu": {"b": true}, "padding": {"s": "U0FNRQ=="}, "dilations": {"list": {"i": ["1", "1", "1", "1"]}}}}, {"name": "rnn_classifier/Convolutions/Conv_5/conv1d", "op": "_FusedConv2D", "input": ["rnn_classifier/Convolutions/Conv_5/conv1d/ExpandDims", "rnn_classifier/Convolutions/Conv_5/conv1d/ExpandDims_1", "Convolutions/Conv_5/biases"], "device": "/device:CPU:0", "attr": {"num_args": {"i": "1"}, "explicit_paddings": {"list": {}}, "fused_ops": {"list": {"s": ["Qmlhc0FkZA=="]}}, "use_cudnn_on_gpu": {"b": true}, "padding": {"s": "U0FNRQ=="}, "dilations": {"list": {"i": ["1", "1", "1", "1"]}}, "epsilon": {"f": 0.0}, "T": {"type": "DT_FLOAT"}, "strides": {"list": {"i": ["1", "1", "1", "1"]}}, "data_format": {"s": "TkhXQw=="}}}, {"name": "rnn_classifier/Convolutions/Conv_8/conv1d", "op": "_FusedConv2D", "input": ["rnn_classifier/Convolutions/Conv_8/conv1d/ExpandDims", "rnn_classifier/Convolutions/Conv_8/conv1d/ExpandDims_1", "Convolutions/Conv_8/biases"], "device": "/device:CPU:0", "attr": {"padding": {"s": "U0FNRQ=="}, "dilations": {"list": {"i": ["1", "1", "1", "1"]}}, "epsilon": {"f": 0.0}, "strides": {"list": {"i": ["1", "1", "1", "1"]}}, "T": {"type": "DT_FLOAT"}, "data_format": {"s": "TkhXQw=="}, "num_args": {"i": "1"}, "explicit_paddings": {"list": {}}, "fused_ops": {"list": {"s": ["Qmlhc0FkZA=="]}}, "use_cudnn_on_gpu": {"b": true}}}, {"name": "rnn_classifier/Convolutions/Conv_11/conv1d", "op": "_FusedConv2D", "input": ["rnn_classifier/Convolutions/Conv_11/conv1d/ExpandDims", "rnn_classifier/Convolutions/Conv_11/conv1d/ExpandDims_1", "Convolutions/Conv_11/biases"], "device": "/device:CPU:0", "attr": {"padding": {"s": "U0FNRQ=="}, "dilations": {"list": {"i": ["1", "1", "1", "1"]}}, "epsilon": {"f": 0.0}, "T": {"type": "DT_FLOAT"}, "strides": {"list": {"i": ["1", "1", "1", "1"]}}, "data_format": {"s": "TkhXQw=="}, "num_args": {"i": "1"}, "explicit_paddings": {"list": {}}, "fused_ops": {"list": {"s": ["Qmlhc0FkZA=="]}}, "use_cudnn_on_gpu": {"b": true}}}, {"name": "rnn_classifier/Convolutions/Conv_14/conv1d", "op": "_FusedConv2D", "input": ["rnn_classifier/Convolutions/Conv_14/conv1d/ExpandDims", "rnn_classifier/Convolutions/Conv_14/conv1d/ExpandDims_1", "Convolutions/Conv_14/biases"], "device": "/device:CPU:0", "attr": {"use_cudnn_on_gpu": {"b": true}, "padding": {"s": "U0FNRQ=="}, "dilations": {"list": {"i": ["1", "1", "1", "1"]}}, "epsilon": {"f": 0.0}, "strides": {"list": {"i": ["1", "1", "1", "1"]}}, "T": {"type": "DT_FLOAT"}, "data_format": {"s": "TkhXQw=="}, "num_args": {"i": "1"}, "explicit_paddings": {"list": {}}, "fused_ops": {"list": {"s": ["Qmlhc0FkZA=="]}}}}, {"name": "rnn_classifier/Convolutions/Conv_2/BiasAdd", "op": "Squeeze", "input": ["rnn_classifier/Convolutions/Conv_2/conv1d"], "attr": {"squeeze_dims": {"list": {"i": ["1"]}}, "T": {"type": "DT_FLOAT"}}}, {"name": "rnn_classifier/Convolutions/Conv_5/BiasAdd", "op": "Squeeze", "input": ["rnn_classifier/Convolutions/Conv_5/conv1d"], "attr": {"T": {"type": "DT_FLOAT"}, "squeeze_dims": {"list": {"i": ["1"]}}}}, {"name": "rnn_classifier/Convolutions/Conv_8/BiasAdd", "op": "Squeeze", "input": ["rnn_classifier/Convolutions/Conv_8/conv1d"], "attr": {"T": {"type": "DT_FLOAT"}, "squeeze_dims": {"list": {"i": ["1"]}}}}, {"name": "rnn_classifier/Convolutions/Conv_11/BiasAdd", "op": "Squeeze", "input": ["rnn_classifier/Convolutions/Conv_11/conv1d"], "attr": {"T": {"type": "DT_FLOAT"}, "squeeze_dims": {"list": {"i": ["1"]}}}}, {"name": "rnn_classifier/Convolutions/Conv_14/BiasAdd", "op": "Squeeze", "input": ["rnn_classifier/Convolutions/Conv_14/conv1d"], "attr": {"squeeze_dims": {"list": {"i": ["1"]}}, "T": {"type": "DT_FLOAT"}}}, {"name": "rnn_classifier/Convolutions/concat", "op": "ConcatV2", "input": ["rnn_classifier/Convolutions/Conv_2/BiasAdd", "rnn_classifier/Convolutions/Conv_5/BiasAdd", "rnn_classifier/Convolutions/Conv_8/BiasAdd", "rnn_classifier/Convolutions/Conv_11/BiasAdd", "rnn_classifier/Convolutions/Conv_14/BiasAdd", "rnn_classifier/Convolutions/concat/axis"], "attr": {"Tidx": {"type": "DT_INT32"}, "N": {"i": "5"}, "T": {"type": "DT_FLOAT"}}}, {"name": "rnn_classifier/Convolutions/Conv_2/Relu", "op": "Relu", "input": ["rnn_classifier/Convolutions/concat"], "attr": {"T": {"type": "DT_FLOAT"}}}, {"name": "rnn_classifier/bidi_lstm/bidirectional_rnn/fw/fw/transpose", "op": "Transpose", "input": ["rnn_classifier/Convolutions/Conv_2/Relu", "rnn_classifier/bidi_lstm/bidirectional_rnn/fw/fw/concat"], "attr": {"Tperm": {"type": "DT_INT32"}, "T": {"type": "DT_FLOAT"}}}, {"name": "rnn_classifier/bidi_lstm/bidirectional_rnn/bw/ReverseSequence", "op": "ReverseSequence", "input": ["rnn_classifier/Convolutions/Conv_2/Relu", "rnn_classifier/compute_lengths/Sum"], "attr": {"T": {"type": "DT_FLOAT"}, "Tlen": {"type": "DT_INT32"}, "seq_dim": {"i": "1"}, "batch_dim": {"i": "0"}}}, {"name": "rnn_classifier/bidi_lstm/bidirectional_rnn/fw/fw/TensorArrayUnstack/Shape", "op": "Shape", "input": ["rnn_classifier/bidi_lstm/bidirectional_rnn/fw/fw/transpose"], "attr": {"T": {"type": "DT_FLOAT"}, "out_type": {"type": "DT_INT32"}}}, {"name": "rnn_classifier/bidi_lstm/bidirectional_rnn/fw/fw/Shape_1", "op": "Shape", "input": ["rnn_classifier/bidi_lstm/bidirectional_rnn/fw/fw/transpose"], "attr": {"T": {"type": "DT_FLOAT"}, "out_type": {"type": "DT_INT32"}}}, {"name": "rnn_classifier/bidi_lstm/bidirectional_rnn/bw/bw/transpose", "op": "Transpose", "input": ["rnn_classifier/bidi_lstm/bidirectional_rnn/bw/ReverseSequence", "rnn_classifier/bidi_lstm/bidirectional_rnn/bw/bw/concat"], "attr": {"Tperm": {"type": "DT_INT32"}, "T": {"type": "DT_FLOAT"}}}, {"name": "rnn_classifier/bidi_lstm/bidirectional_rnn/fw/fw/TensorArrayUnstack/strided_slice", "op": "StridedSlice", "input": ["rnn_classifier/bidi_lstm/bidirectional_rnn/fw/fw/TensorArrayUnstack/Shape", "rnn_classifier/bidi_lstm/bidirectional_rnn/fw/fw/TensorArrayUnstack/strided_slice/stack", "rnn_classifier/bidi_lstm/bidirectional_rnn/fw/fw/TensorArrayUnstack/strided_slice/stack_1", "rnn_classifier/bidi_lstm/bidirectional_rnn/fw/fw/TensorArrayUnstack/strided_slice/stack_2"], "attr": {"begin_mask": {"i": "0"}, "shrink_axis_mask": {"i": "1"}, "ellipsis_mask": {"i": "0"}, "end_mask": {"i": "0"}, "Index": {"type": "DT_INT32"}, "new_axis_mask": {"i": "0"}, "T": {"type": "DT_INT32"}}}, {"name": "rnn_classifier/bidi_lstm/bidirectional_rnn/fw/fw/strided_slice", "op": "StridedSlice", "input": ["rnn_classifier/bidi_lstm/bidirectional_rnn/fw/fw/Shape_1", "rnn_classifier/bidi_lstm/bidirectional_rnn/fw/fw/strided_slice/stack", "rnn_classifier/bidi_lstm/bidirectional_rnn/fw/fw/strided_slice/stack_1", "rnn_classifier/bidi_lstm/bidirectional_rnn/fw/fw/strided_slice/stack_2"], "attr": {"ellipsis_mask": {"i": "0"}, "end_mask": {"i": "0"}, "Index": {"type": "DT_INT32"}, "new_axis_mask": {"i": "0"}, "T": {"type": "DT_INT32"}, "begin_mask": {"i": "0"}, "shrink_axis_mask": {"i": "1"}}}, {"name": "rnn_classifier/bidi_lstm/bidirectional_rnn/bw/bw/TensorArrayUnstack/Shape", "op": "Shape", "input": ["rnn_classifier/bidi_lstm/bidirectional_rnn/bw/bw/transpose"], "attr": {"T": {"type": "DT_FLOAT"}, "out_type": {"type": "DT_INT32"}}}, {"name": "rnn_classifier/bidi_lstm/bidirectional_rnn/bw/bw/Shape_1", "op": "Shape", "input": ["rnn_classifier/bidi_lstm/bidirectional_rnn/bw/bw/transpose"], "attr": {"T": {"type": "DT_FLOAT"}, "out_type": {"type": "DT_INT32"}}}, {"name": "rnn_classifier/bidi_lstm/bidirectional_rnn/fw/fw/TensorArrayUnstack/range", "op": "Range", "input": ["rnn_classifier/bidi_lstm/bidirectional_rnn/fw/fw/TensorArrayUnstack/range/start", "rnn_classifier/bidi_lstm/bidirectional_rnn/fw/fw/TensorArrayUnstack/strided_slice", "rnn_classifier/bidi_lstm/bidirectional_rnn/fw/fw/TensorArrayUnstack/range/delta"], "attr": {"Tidx": {"type": "DT_INT32"}}}, {"name": "rnn_classifier/bidi_lstm/bidirectional_rnn/fw/fw/TensorArrayStack/range", "op": "Range", "input": ["rnn_classifier/bidi_lstm/bidirectional_rnn/fw/fw/TensorArrayStack/range/start", "rnn_classifier/bidi_lstm/bidirectional_rnn/fw/fw/strided_slice", "rnn_classifier/bidi_lstm/bidirectional_rnn/fw/fw/TensorArrayStack/range/delta"], "attr": {"Tidx": {"type": "DT_INT32"}}}, {"name": "rnn_classifier/bidi_lstm/bidirectional_rnn/fw/fw/TensorArray", "op": "TensorArrayV3", "input": ["rnn_classifier/bidi_lstm/bidirectional_rnn/fw/fw/strided_slice"], "attr": {"tensor_array_name": {"s": "cm5uX2NsYXNzaWZpZXIvYmlkaV9sc3RtL2JpZGlyZWN0aW9uYWxfcm5uL2Z3L2Z3L2R5bmFtaWNfcm5uL291dHB1dF8w"}, "dynamic_size": {"b": false}, "identical_element_shapes": {"b": true}, "element_shape": {"shape": {"dim": [{"size": "1"}, {"size": "128"}]}}, "dtype": {"type": "DT_FLOAT"}, "clear_after_read": {"b": true}}}, {"name": "rnn_classifier/bidi_lstm/bidirectional_rnn/fw/fw/TensorArray_1", "op": "TensorArrayV3", "input": ["rnn_classifier/bidi_lstm/bidirectional_rnn/fw/fw/strided_slice"], "attr": {"dynamic_size": {"b": false}, "identical_element_shapes": {"b": true}, "element_shape": {"shape": {"dim": [{"size": "1"}, {"size": "480"}]}}, "dtype": {"type": "DT_FLOAT"}, "clear_after_read": {"b": true}, "tensor_array_name": {"s": "cm5uX2NsYXNzaWZpZXIvYmlkaV9sc3RtL2JpZGlyZWN0aW9uYWxfcm5uL2Z3L2Z3L2R5bmFtaWNfcm5uL2lucHV0XzA="}}}, {"name": "rnn_classifier/bidi_lstm/bidirectional_rnn/fw/fw/while/Less/Enter", "op": "Enter", "input": ["rnn_classifier/bidi_lstm/bidirectional_rnn/fw/fw/strided_slice"], "attr": {"frame_name": {"s": "cm5uX2NsYXNzaWZpZXIvYmlkaV9sc3RtL2JpZGlyZWN0aW9uYWxfcm5uL2Z3L2Z3L3doaWxlL3doaWxlX2NvbnRleHQ="}, "is_constant": {"b": true}, "parallel_iterations": {"i": "32"}, "T": {"type": "DT_INT32"}}}, {"name": "rnn_classifier/bidi_lstm/bidirectional_rnn/fw/fw/Minimum", "op": "Minimum", "input": ["rnn_classifier/bidi_lstm/bidirectional_rnn/fw/fw/strided_slice", "rnn_classifier/bidi_lstm/bidirectional_rnn/fw/fw/Maximum"], "attr": {"T": {"type": "DT_INT32"}}}, {"name": "rnn_classifier/bidi_lstm/bidirectional_rnn/bw/bw/TensorArrayUnstack/strided_slice", "op": "StridedSlice", "input": ["rnn_classifier/bidi_lstm/bidirectional_rnn/bw/bw/TensorArrayUnstack/Shape", "rnn_classifier/bidi_lstm/bidirectional_rnn/bw/bw/TensorArrayUnstack/strided_slice/stack", "rnn_classifier/bidi_lstm/bidirectional_rnn/bw/bw/TensorArrayUnstack/strided_slice/stack_1", "rnn_classifier/bidi_lstm/bidirectional_rnn/bw/bw/TensorArrayUnstack/strided_slice/stack_2"], "attr": {"begin_mask": {"i": "0"}, "shrink_axis_mask": {"i": "1"}, "ellipsis_mask": {"i": "0"}, "end_mask": {"i": "0"}, "Index": {"type": "DT_INT32"}, "new_axis_mask": {"i": "0"}, "T": {"type": "DT_INT32"}}}, {"name": "rnn_classifier/bidi_lstm/bidirectional_rnn/bw/bw/strided_slice", "op": "StridedSlice", "input": ["rnn_classifier/bidi_lstm/bidirectional_rnn/bw/bw/Shape_1", "rnn_classifier/bidi_lstm/bidirectional_rnn/bw/bw/strided_slice/stack", "rnn_classifier/bidi_lstm/bidirectional_rnn/bw/bw/strided_slice/stack_1", "rnn_classifier/bidi_lstm/bidirectional_rnn/bw/bw/strided_slice/stack_2"], "attr": {"Index": {"type": "DT_INT32"}, "new_axis_mask": {"i": "0"}, "T": {"type": "DT_INT32"}, "begin_mask": {"i": "0"}, "shrink_axis_mask": {"i": "1"}, "ellipsis_mask": {"i": "0"}, "end_mask": {"i": "0"}}}, {"name": "rnn_classifier/bidi_lstm/bidirectional_rnn/fw/fw/while/TensorArrayWrite/TensorArrayWriteV3/Enter", "op": "Enter", "input": ["rnn_classifier/bidi_lstm/bidirectional_rnn/fw/fw/TensorArray"], "attr": {"parallel_iterations": {"i": "32"}, "T": {"type": "DT_RESOURCE"}, "frame_name": {"s": "cm5uX2NsYXNzaWZpZXIvYmlkaV9sc3RtL2JpZGlyZWN0aW9uYWxfcm5uL2Z3L2Z3L3doaWxlL3doaWxlX2NvbnRleHQ="}, "is_constant": {"b": true}}}, {"name": "rnn_classifier/bidi_lstm/bidirectional_rnn/fw/fw/while/Enter_2", "op": "Enter", "input": ["rnn_classifier/bidi_lstm/bidirectional_rnn/fw/fw/TensorArray:1"], "attr": {"frame_name": {"s": "cm5uX2NsYXNzaWZpZXIvYmlkaV9sc3RtL2JpZGlyZWN0aW9uYWxfcm5uL2Z3L2Z3L3doaWxlL3doaWxlX2NvbnRleHQ="}, "is_constant": {"b": false}, "parallel_iterations": {"i": "32"}, "T": {"type": "DT_FLOAT"}}}, {"name": "rnn_classifier/bidi_lstm/bidirectional_rnn/fw/fw/while/TensorArrayReadV3/Enter", "op": "Enter", "input": ["rnn_classifier/bidi_lstm/bidirectional_rnn/fw/fw/TensorArray_1"], "attr": {"parallel_iterations": {"i": "32"}, "T": {"type": "DT_RESOURCE"}, "frame_name": {"s": "cm5uX2NsYXNzaWZpZXIvYmlkaV9sc3RtL2JpZGlyZWN0aW9uYWxfcm5uL2Z3L2Z3L3doaWxlL3doaWxlX2NvbnRleHQ="}, "is_constant": {"b": true}}}, {"name": "rnn_classifier/bidi_lstm/bidirectional_rnn/fw/fw/TensorArrayUnstack/TensorArrayScatter/TensorArrayScatterV3", "op": "TensorArrayScatterV3", "input": ["rnn_classifier/bidi_lstm/bidirectional_rnn/fw/fw/TensorArray_1", "rnn_classifier/bidi_lstm/bidirectional_rnn/fw/fw/TensorArrayUnstack/range", "rnn_classifier/bidi_lstm/bidirectional_rnn/fw/fw/transpose", "rnn_classifier/bidi_lstm/bidirectional_rnn/fw/fw/TensorArray_1:1"], "attr": {"T": {"type": "DT_FLOAT"}}}, {"name": "rnn_classifier/bidi_lstm/bidirectional_rnn/fw/fw/while/Less", "op": "Less", "input": ["rnn_classifier/bidi_lstm/bidirectional_rnn/fw/fw/while/Merge", "rnn_classifier/bidi_lstm/bidirectional_rnn/fw/fw/while/Less/Enter"], "attr": {"T": {"type": "DT_INT32"}}}, {"name": "rnn_classifier/bidi_lstm/bidirectional_rnn/fw/fw/while/Less_1/Enter", "op": "Enter", "input": ["rnn_classifier/bidi_lstm/bidirectional_rnn/fw/fw/Minimum"], "attr": {"T": {"type": "DT_INT32"}, "frame_name": {"s": "cm5uX2NsYXNzaWZpZXIvYmlkaV9sc3RtL2JpZGlyZWN0aW9uYWxfcm5uL2Z3L2Z3L3doaWxlL3doaWxlX2NvbnRleHQ="}, "is_constant": {"b": true}, "parallel_iterations": {"i": "32"}}}, {"name": "rnn_classifier/bidi_lstm/bidirectional_rnn/bw/bw/TensorArrayUnstack/range", "op": "Range", "input": ["rnn_classifier/bidi_lstm/bidirectional_rnn/bw/bw/TensorArrayUnstack/range/start", "rnn_classifier/bidi_lstm/bidirectional_rnn/bw/bw/TensorArrayUnstack/strided_slice", "rnn_classifier/bidi_lstm/bidirectional_rnn/bw/bw/TensorArrayUnstack/range/delta"], "attr": {"Tidx": {"type": "DT_INT32"}}}, {"name": "rnn_classifier/bidi_lstm/bidirectional_rnn/bw/bw/TensorArrayStack/range", "op": "Range", "input": ["rnn_classifier/bidi_lstm/bidirectional_rnn/bw/bw/TensorArrayStack/range/start", "rnn_classifier/bidi_lstm/bidirectional_rnn/bw/bw/strided_slice", "rnn_classifier/bidi_lstm/bidirectional_rnn/bw/bw/TensorArrayStack/range/delta"], "attr": {"Tidx": {"type": "DT_INT32"}}}, {"name": "rnn_classifier/bidi_lstm/bidirectional_rnn/bw/bw/TensorArray", "op": "TensorArrayV3", "input": ["rnn_classifier/bidi_lstm/bidirectional_rnn/bw/bw/strided_slice"], "attr": {"dynamic_size": {"b": false}, "identical_element_shapes": {"b": true}, "element_shape": {"shape": {"dim": [{"size": "1"}, {"size": "128"}]}}, "dtype": {"type": "DT_FLOAT"}, "clear_after_read": {"b": true}, "tensor_array_name": {"s": "cm5uX2NsYXNzaWZpZXIvYmlkaV9sc3RtL2JpZGlyZWN0aW9uYWxfcm5uL2J3L2J3L2R5bmFtaWNfcm5uL291dHB1dF8w"}}}, {"name": "rnn_classifier/bidi_lstm/bidirectional_rnn/bw/bw/TensorArray_1", "op": "TensorArrayV3", "input": ["rnn_classifier/bidi_lstm/bidirectional_rnn/bw/bw/strided_slice"], "attr": {"element_shape": {"shape": {"dim": [{"size": "1"}, {"size": "480"}]}}, "dtype": {"type": "DT_FLOAT"}, "clear_after_read": {"b": true}, "tensor_array_name": {"s": "cm5uX2NsYXNzaWZpZXIvYmlkaV9sc3RtL2JpZGlyZWN0aW9uYWxfcm5uL2J3L2J3L2R5bmFtaWNfcm5uL2lucHV0XzA="}, "dynamic_size": {"b": false}, "identical_element_shapes": {"b": true}}}, {"name": "rnn_classifier/bidi_lstm/bidirectional_rnn/bw/bw/while/Less/Enter", "op": "Enter", "input": ["rnn_classifier/bidi_lstm/bidirectional_rnn/bw/bw/strided_slice"], "attr": {"frame_name": {"s": "cm5uX2NsYXNzaWZpZXIvYmlkaV9sc3RtL2JpZGlyZWN0aW9uYWxfcm5uL2J3L2J3L3doaWxlL3doaWxlX2NvbnRleHQ="}, "is_constant": {"b": true}, "parallel_iterations": {"i": "32"}, "T": {"type": "DT_INT32"}}}, {"name": "rnn_classifier/bidi_lstm/bidirectional_rnn/bw/bw/Minimum", "op": "Minimum", "input": ["rnn_classifier/bidi_lstm/bidirectional_rnn/bw/bw/strided_slice", "rnn_classifier/bidi_lstm/bidirectional_rnn/bw/bw/Maximum"], "attr": {"T": {"type": "DT_INT32"}}}, {"name": "rnn_classifier/bidi_lstm/bidirectional_rnn/fw/fw/while/Merge_2", "op": "Merge", "input": ["rnn_classifier/bidi_lstm/bidirectional_rnn/fw/fw/while/Enter_2", "rnn_classifier/bidi_lstm/bidirectional_rnn/fw/fw/while/NextIteration_2"], "attr": {"N": {"i": "2"}, "T": {"type": "DT_FLOAT"}}}, {"name": "rnn_classifier/bidi_lstm/bidirectional_rnn/fw/fw/while/TensorArrayReadV3/Enter_1", "op": "Enter", "input": ["rnn_classifier/bidi_lstm/bidirectional_rnn/fw/fw/TensorArrayUnstack/TensorArrayScatter/TensorArrayScatterV3"], "attr": {"parallel_iterations": {"i": "32"}, "T": {"type": "DT_FLOAT"}, "frame_name": {"s": "cm5uX2NsYXNzaWZpZXIvYmlkaV9sc3RtL2JpZGlyZWN0aW9uYWxfcm5uL2Z3L2Z3L3doaWxlL3doaWxlX2NvbnRleHQ="}, "is_constant": {"b": true}}}, {"name": "rnn_classifier/bidi_lstm/bidirectional_rnn/fw/fw/while/Less_1", "op": "Less", "input": ["rnn_classifier/bidi_lstm/bidirectional_rnn/fw/fw/while/Merge_1", "rnn_classifier/bidi_lstm/bidirectional_rnn/fw/fw/while/Less_1/Enter"], "attr": {"T": {"type": "DT_INT32"}}}, {"name": "rnn_classifier/bidi_lstm/bidirectional_rnn/bw/bw/while/TensorArrayWrite/TensorArrayWriteV3/Enter", "op": "Enter", "input": ["rnn_classifier/bidi_lstm/bidirectional_rnn/bw/bw/TensorArray"], "attr": {"is_constant": {"b": true}, "parallel_iterations": {"i": "32"}, "T": {"type": "DT_RESOURCE"}, "frame_name": {"s": "cm5uX2NsYXNzaWZpZXIvYmlkaV9sc3RtL2JpZGlyZWN0aW9uYWxfcm5uL2J3L2J3L3doaWxlL3doaWxlX2NvbnRleHQ="}}}, {"name": "rnn_classifier/bidi_lstm/bidirectional_rnn/bw/bw/while/Enter_2", "op": "Enter", "input": ["rnn_classifier/bidi_lstm/bidirectional_rnn/bw/bw/TensorArray:1"], "attr": {"frame_name": {"s": "cm5uX2NsYXNzaWZpZXIvYmlkaV9sc3RtL2JpZGlyZWN0aW9uYWxfcm5uL2J3L2J3L3doaWxlL3doaWxlX2NvbnRleHQ="}, "is_constant": {"b": false}, "parallel_iterations": {"i": "32"}, "T": {"type": "DT_FLOAT"}}}, {"name": "rnn_classifier/bidi_lstm/bidirectional_rnn/bw/bw/while/TensorArrayReadV3/Enter", "op": "Enter", "input": ["rnn_classifier/bidi_lstm/bidirectional_rnn/bw/bw/TensorArray_1"], "attr": {"parallel_iterations": {"i": "32"}, "T": {"type": "DT_RESOURCE"}, "frame_name": {"s": "cm5uX2NsYXNzaWZpZXIvYmlkaV9sc3RtL2JpZGlyZWN0aW9uYWxfcm5uL2J3L2J3L3doaWxlL3doaWxlX2NvbnRleHQ="}, "is_constant": {"b": true}}}, {"name": "rnn_classifier/bidi_lstm/bidirectional_rnn/bw/bw/TensorArrayUnstack/TensorArrayScatter/TensorArrayScatterV3", "op": "TensorArrayScatterV3", "input": ["rnn_classifier/bidi_lstm/bidirectional_rnn/bw/bw/TensorArray_1", "rnn_classifier/bidi_lstm/bidirectional_rnn/bw/bw/TensorArrayUnstack/range", "rnn_classifier/bidi_lstm/bidirectional_rnn/bw/bw/transpose", "rnn_classifier/bidi_lstm/bidirectional_rnn/bw/bw/TensorArray_1:1"], "attr": {"T": {"type": "DT_FLOAT"}}}, {"name": "rnn_classifier/bidi_lstm/bidirectional_rnn/bw/bw/while/Less", "op": "Less", "input": ["rnn_classifier/bidi_lstm/bidirectional_rnn/bw/bw/while/Merge", "rnn_classifier/bidi_lstm/bidirectional_rnn/bw/bw/while/Less/Enter"], "attr": {"T": {"type": "DT_INT32"}}}, {"name": "rnn_classifier/bidi_lstm/bidirectional_rnn/bw/bw/while/Less_1/Enter", "op": "Enter", "input": ["rnn_classifier/bidi_lstm/bidirectional_rnn/bw/bw/Minimum"], "attr": {"frame_name": {"s": "cm5uX2NsYXNzaWZpZXIvYmlkaV9sc3RtL2JpZGlyZWN0aW9uYWxfcm5uL2J3L2J3L3doaWxlL3doaWxlX2NvbnRleHQ="}, "is_constant": {"b": true}, "parallel_iterations": {"i": "32"}, "T": {"type": "DT_INT32"}}}, {"name": "rnn_classifier/bidi_lstm/bidirectional_rnn/fw/fw/while/LogicalAnd", "op": "LogicalAnd", "input": ["rnn_classifier/bidi_lstm/bidirectional_rnn/fw/fw/while/Less", "rnn_classifier/bidi_lstm/bidirectional_rnn/fw/fw/while/Less_1"]}, {"name": "rnn_classifier/bidi_lstm/bidirectional_rnn/bw/bw/while/Merge_2", "op": "Merge", "input": ["rnn_classifier/bidi_lstm/bidirectional_rnn/bw/bw/while/Enter_2", "rnn_classifier/bidi_lstm/bidirectional_rnn/bw/bw/while/NextIteration_2"], "attr": {"N": {"i": "2"}, "T": {"type": "DT_FLOAT"}}}, {"name": "rnn_classifier/bidi_lstm/bidirectional_rnn/bw/bw/while/TensorArrayReadV3/Enter_1", "op": "Enter", "input": ["rnn_classifier/bidi_lstm/bidirectional_rnn/bw/bw/TensorArrayUnstack/TensorArrayScatter/TensorArrayScatterV3"], "attr": {"is_constant": {"b": true}, "parallel_iterations": {"i": "32"}, "T": {"type": "DT_FLOAT"}, "frame_name": {"s": "cm5uX2NsYXNzaWZpZXIvYmlkaV9sc3RtL2JpZGlyZWN0aW9uYWxfcm5uL2J3L2J3L3doaWxlL3doaWxlX2NvbnRleHQ="}}}, {"name": "rnn_classifier/bidi_lstm/bidirectional_rnn/bw/bw/while/Less_1", "op": "Less", "input": ["rnn_classifier/bidi_lstm/bidirectional_rnn/bw/bw/while/Merge_1", "rnn_classifier/bidi_lstm/bidirectional_rnn/bw/bw/while/Less_1/Enter"], "attr": {"T": {"type": "DT_INT32"}}}, {"name": "rnn_classifier/bidi_lstm/bidirectional_rnn/fw/fw/while/LoopCond", "op": "LoopCond", "input": ["rnn_classifier/bidi_lstm/bidirectional_rnn/fw/fw/while/LogicalAnd"]}, {"name": "rnn_classifier/bidi_lstm/bidirectional_rnn/bw/bw/while/LogicalAnd", "op": "LogicalAnd", "input": ["rnn_classifier/bidi_lstm/bidirectional_rnn/bw/bw/while/Less", "rnn_classifier/bidi_lstm/bidirectional_rnn/bw/bw/while/Less_1"]}, {"name": "rnn_classifier/bidi_lstm/bidirectional_rnn/fw/fw/while/Switch_3", "op": "Switch", "input": ["rnn_classifier/bidi_lstm/bidirectional_rnn/fw/fw/while/Merge_3", "rnn_classifier/bidi_lstm/bidirectional_rnn/fw/fw/while/LoopCond"], "attr": {"T": {"type": "DT_FLOAT"}}}, {"name": "rnn_classifier/bidi_lstm/bidirectional_rnn/fw/fw/while/Switch_4", "op": "Switch", "input": ["rnn_classifier/bidi_lstm/bidirectional_rnn/fw/fw/while/Merge_4", "rnn_classifier/bidi_lstm/bidirectional_rnn/fw/fw/while/LoopCond"], "attr": {"T": {"type": "DT_FLOAT"}}}, {"name": "rnn_classifier/bidi_lstm/bidirectional_rnn/fw/fw/while/Switch_1", "op": "Switch", "input": ["rnn_classifier/bidi_lstm/bidirectional_rnn/fw/fw/while/Merge_1", "rnn_classifier/bidi_lstm/bidirectional_rnn/fw/fw/while/LoopCond"], "attr": {"T": {"type": "DT_INT32"}}}, {"name": "rnn_classifier/bidi_lstm/bidirectional_rnn/fw/fw/while/Switch", "op": "Switch", "input": ["rnn_classifier/bidi_lstm/bidirectional_rnn/fw/fw/while/Merge", "rnn_classifier/bidi_lstm/bidirectional_rnn/fw/fw/while/LoopCond"], "attr": {"T": {"type": "DT_INT32"}}}, {"name": "rnn_classifier/bidi_lstm/bidirectional_rnn/fw/fw/while/Switch_2", "op": "Switch", "input": ["rnn_classifier/bidi_lstm/bidirectional_rnn/fw/fw/while/Merge_2", "rnn_classifier/bidi_lstm/bidirectional_rnn/fw/fw/while/LoopCond"], "attr": {"T": {"type": "DT_FLOAT"}}}, {"name": "rnn_classifier/bidi_lstm/bidirectional_rnn/bw/bw/while/LoopCond", "op": "LoopCond", "input": ["rnn_classifier/bidi_lstm/bidirectional_rnn/bw/bw/while/LogicalAnd"]}, {"name": "rnn_classifier/bidi_lstm/bidirectional_rnn/fw/fw/while/TensorArrayReadV3", "op": "TensorArrayReadV3", "input": ["rnn_classifier/bidi_lstm/bidirectional_rnn/fw/fw/while/TensorArrayReadV3/Enter", "rnn_classifier/bidi_lstm/bidirectional_rnn/fw/fw/while/Switch_1:1", "rnn_classifier/bidi_lstm/bidirectional_rnn/fw/fw/while/TensorArrayReadV3/Enter_1"], "attr": {"dtype": {"type": "DT_FLOAT"}}}, {"name": "rnn_classifier/bidi_lstm/bidirectional_rnn/fw/fw/while/GreaterEqual", "op": "GreaterEqual", "input": ["rnn_classifier/bidi_lstm/bidirectional_rnn/fw/fw/while/Switch_1:1", "rnn_classifier/bidi_lstm/bidirectional_rnn/fw/fw/while/GreaterEqual/Enter"], "attr": {"T": {"type": "DT_INT32"}}}, {"name": "rnn_classifier/bidi_lstm/bidirectional_rnn/fw/fw/while/Identity", "op": "Identity", "input": ["rnn_classifier/bidi_lstm/bidirectional_rnn/fw/fw/while/Switch:1"], "attr": {"T": {"type": "DT_INT32"}}}, {"name": "rnn_classifier/bidi_lstm/bidirectional_rnn/fw/fw/while/Exit_2", "op": "Exit", "input": ["rnn_classifier/bidi_lstm/bidirectional_rnn/fw/fw/while/Switch_2"], "attr": {"T": {"type": "DT_FLOAT"}}}, {"name": "rnn_classifier/bidi_lstm/bidirectional_rnn/bw/bw/while/Switch_3", "op": "Switch", "input": ["rnn_classifier/bidi_lstm/bidirectional_rnn/bw/bw/while/Merge_3", "rnn_classifier/bidi_lstm/bidirectional_rnn/bw/bw/while/LoopCond"], "attr": {"T": {"type": "DT_FLOAT"}}}, {"name": "rnn_classifier/bidi_lstm/bidirectional_rnn/bw/bw/while/Switch_4", "op": "Switch", "input": ["rnn_classifier/bidi_lstm/bidirectional_rnn/bw/bw/while/Merge_4", "rnn_classifier/bidi_lstm/bidirectional_rnn/bw/bw/while/LoopCond"], "attr": {"T": {"type": "DT_FLOAT"}}}, {"name": "rnn_classifier/bidi_lstm/bidirectional_rnn/bw/bw/while/Switch_1", "op": "Switch", "input": ["rnn_classifier/bidi_lstm/bidirectional_rnn/bw/bw/while/Merge_1", "rnn_classifier/bidi_lstm/bidirectional_rnn/bw/bw/while/LoopCond"], "attr": {"T": {"type": "DT_INT32"}}}, {"name": "rnn_classifier/bidi_lstm/bidirectional_rnn/bw/bw/while/Switch", "op": "Switch", "input": ["rnn_classifier/bidi_lstm/bidirectional_rnn/bw/bw/while/Merge", "rnn_classifier/bidi_lstm/bidirectional_rnn/bw/bw/while/LoopCond"], "attr": {"T": {"type": "DT_INT32"}}}, {"name": "rnn_classifier/bidi_lstm/bidirectional_rnn/bw/bw/while/Switch_2", "op": "Switch", "input": ["rnn_classifier/bidi_lstm/bidirectional_rnn/bw/bw/while/Merge_2", "rnn_classifier/bidi_lstm/bidirectional_rnn/bw/bw/while/LoopCond"], "attr": {"T": {"type": "DT_FLOAT"}}}, {"name": "rnn_classifier/bidi_lstm/bidirectional_rnn/fw/fw/while/lstm_cell/add/y", "op": "Const", "input": ["^rnn_classifier/bidi_lstm/bidirectional_rnn/fw/fw/while/Identity"], "attr": {"value": {"tensor": {"dtype": "DT_FLOAT", "tensorShape": {}}}, "dtype": {"type": "DT_FLOAT"}}}, {"name": "rnn_classifier/bidi_lstm/bidirectional_rnn/fw/fw/while/lstm_cell/split/split_dim", "op": "Const", "input": ["^rnn_classifier/bidi_lstm/bidirectional_rnn/fw/fw/while/Identity"], "attr": {"dtype": {"type": "DT_INT32"}, "value": {"tensor": {"dtype": "DT_INT32", "tensorShape": {}}}}}, {"name": "rnn_classifier/bidi_lstm/bidirectional_rnn/fw/fw/while/lstm_cell/concat/axis", "op": "Const", "input": ["^rnn_classifier/bidi_lstm/bidirectional_rnn/fw/fw/while/Identity"], "attr": {"value": {"tensor": {"dtype": "DT_INT32", "tensorShape": {}}}, "dtype": {"type": "DT_INT32"}}}, {"name": "rnn_classifier/bidi_lstm/bidirectional_rnn/fw/fw/while/add/y", "op": "Const", "input": ["^rnn_classifier/bidi_lstm/bidirectional_rnn/fw/fw/while/Identity"], "attr": {"value": {"tensor": {"dtype": "DT_INT32", "tensorShape": {}}}, "dtype": {"type": "DT_INT32"}}}, {"name": "rnn_classifier/bidi_lstm/bidirectional_rnn/fw/fw/while/add_1/y", "op": "Const", "input": ["^rnn_classifier/bidi_lstm/bidirectional_rnn/fw/fw/while/Identity"], "attr": {"dtype": {"type": "DT_INT32"}, "value": {"tensor": {"dtype": "DT_INT32", "tensorShape": {}}}}}, {"name": "rnn_classifier/bidi_lstm/bidirectional_rnn/fw/fw/TensorArrayStack/TensorArrayGatherV3", "op": "TensorArrayGatherV3", "input": ["rnn_classifier/bidi_lstm/bidirectional_rnn/fw/fw/TensorArray", "rnn_classifier/bidi_lstm/bidirectional_rnn/fw/fw/TensorArrayStack/range", "rnn_classifier/bidi_lstm/bidirectional_rnn/fw/fw/while/Exit_2"], "attr": {"dtype": {"type": "DT_FLOAT"}, "element_shape": {"shape": {"dim": [{"size": "1"}, {"size": "128"}]}}}}, {"name": "rnn_classifier/bidi_lstm/bidirectional_rnn/bw/bw/while/GreaterEqual", "op": "GreaterEqual", "input": ["rnn_classifier/bidi_lstm/bidirectional_rnn/bw/bw/while/Switch_1:1", "rnn_classifier/bidi_lstm/bidirectional_rnn/bw/bw/while/GreaterEqual/Enter"], "attr": {"T": {"type": "DT_INT32"}}}, {"name": "rnn_classifier/bidi_lstm/bidirectional_rnn/bw/bw/while/TensorArrayReadV3", "op": "TensorArrayReadV3", "input": ["rnn_classifier/bidi_lstm/bidirectional_rnn/bw/bw/while/TensorArrayReadV3/Enter", "rnn_classifier/bidi_lstm/bidirectional_rnn/bw/bw/while/Switch_1:1", "rnn_classifier/bidi_lstm/bidirectional_rnn/bw/bw/while/TensorArrayReadV3/Enter_1"], "attr": {"dtype": {"type": "DT_FLOAT"}}}, {"name": "rnn_classifier/bidi_lstm/bidirectional_rnn/bw/bw/while/Identity", "op": "Identity", "input": ["rnn_classifier/bidi_lstm/bidirectional_rnn/bw/bw/while/Switch:1"], "attr": {"T": {"type": "DT_INT32"}}}, {"name": "rnn_classifier/bidi_lstm/bidirectional_rnn/bw/bw/while/Exit_2", "op": "Exit", "input": ["rnn_classifier/bidi_lstm/bidirectional_rnn/bw/bw/while/Switch_2"], "attr": {"T": {"type": "DT_FLOAT"}}}, {"name": "rnn_classifier/bidi_lstm/bidirectional_rnn/fw/fw/while/lstm_cell/concat", "op": "ConcatV2", "input": ["rnn_classifier/bidi_lstm/bidirectional_rnn/fw/fw/while/TensorArrayReadV3", "rnn_classifier/bidi_lstm/bidirectional_rnn/fw/fw/while/Switch_4:1", "rnn_classifier/bidi_lstm/bidirectional_rnn/fw/fw/while/lstm_cell/concat/axis"], "attr": {"Tidx": {"type": "DT_INT32"}, "N": {"i": "2"}, "T": {"type": "DT_FLOAT"}}}, {"name": "rnn_classifier/bidi_lstm/bidirectional_rnn/fw/fw/while/add", "op": "AddV2", "input": ["rnn_classifier/bidi_lstm/bidirectional_rnn/fw/fw/while/Identity", "rnn_classifier/bidi_lstm/bidirectional_rnn/fw/fw/while/add/y"], "attr": {"T": {"type": "DT_INT32"}}}, {"name": "rnn_classifier/bidi_lstm/bidirectional_rnn/fw/fw/while/add_1", "op": "AddV2", "input": ["rnn_classifier/bidi_lstm/bidirectional_rnn/fw/fw/while/Switch_1:1", "rnn_classifier/bidi_lstm/bidirectional_rnn/fw/fw/while/add_1/y"], "attr": {"T": {"type": "DT_INT32"}}}, {"name": "rnn_classifier/bidi_lstm/bidirectional_rnn/fw/fw/transpose_1", "op": "Transpose", "input": ["rnn_classifier/bidi_lstm/bidirectional_rnn/fw/fw/TensorArrayStack/TensorArrayGatherV3", "rnn_classifier/bidi_lstm/bidirectional_rnn/fw/fw/concat_2"], "attr": {"Tperm": {"type": "DT_INT32"}, "T": {"type": "DT_FLOAT"}}}, {"name": "rnn_classifier/bidi_lstm/bidirectional_rnn/bw/bw/while/lstm_cell/add/y", "op": "Const", "input": ["^rnn_classifier/bidi_lstm/bidirectional_rnn/bw/bw/while/Identity"], "attr": {"value": {"tensor": {"dtype": "DT_FLOAT", "tensorShape": {}}}, "dtype": {"type": "DT_FLOAT"}}}, {"name": "rnn_classifier/bidi_lstm/bidirectional_rnn/bw/bw/while/lstm_cell/split/split_dim", "op": "Const", "input": ["^rnn_classifier/bidi_lstm/bidirectional_rnn/bw/bw/while/Identity"], "attr": {"value": {"tensor": {"dtype": "DT_INT32", "tensorShape": {}}}, "dtype": {"type": "DT_INT32"}}}, {"name": "rnn_classifier/bidi_lstm/bidirectional_rnn/bw/bw/while/lstm_cell/concat/axis", "op": "Const", "input": ["^rnn_classifier/bidi_lstm/bidirectional_rnn/bw/bw/while/Identity"], "attr": {"dtype": {"type": "DT_INT32"}, "value": {"tensor": {"dtype": "DT_INT32", "tensorShape": {}}}}}, {"name": "rnn_classifier/bidi_lstm/bidirectional_rnn/bw/bw/while/add/y", "op": "Const", "input": ["^rnn_classifier/bidi_lstm/bidirectional_rnn/bw/bw/while/Identity"], "attr": {"value": {"tensor": {"dtype": "DT_INT32", "tensorShape": {}}}, "dtype": {"type": "DT_INT32"}}}, {"name": "rnn_classifier/bidi_lstm/bidirectional_rnn/bw/bw/while/add_1/y", "op": "Const", "input": ["^rnn_classifier/bidi_lstm/bidirectional_rnn/bw/bw/while/Identity"], "attr": {"value": {"tensor": {"dtype": "DT_INT32", "tensorShape": {}}}, "dtype": {"type": "DT_INT32"}}}, {"name": "rnn_classifier/bidi_lstm/bidirectional_rnn/bw/bw/TensorArrayStack/TensorArrayGatherV3", "op": "TensorArrayGatherV3", "input": ["rnn_classifier/bidi_lstm/bidirectional_rnn/bw/bw/TensorArray", "rnn_classifier/bidi_lstm/bidirectional_rnn/bw/bw/TensorArrayStack/range", "rnn_classifier/bidi_lstm/bidirectional_rnn/bw/bw/while/Exit_2"], "attr": {"dtype": {"type": "DT_FLOAT"}, "element_shape": {"shape": {"dim": [{"size": "1"}, {"size": "128"}]}}}}, {"name": "rnn_classifier/bidi_lstm/bidirectional_rnn/fw/fw/while/lstm_cell/BiasAdd", "op": "_FusedMatMul", "input": ["rnn_classifier/bidi_lstm/bidirectional_rnn/fw/fw/while/lstm_cell/concat", "ConstantFolding/bidi_lstm/bidirectional_rnn/fw/lstm_cell/kernel_enter", "ConstantFolding/bidi_lstm/bidirectional_rnn/fw/lstm_cell/bias_enter"], "device": "/device:CPU:0", "attr": {"epsilon": {"f": 0.0}, "transpose_b": {"b": false}, "T": {"type": "DT_FLOAT"}, "transpose_a": {"b": false}, "num_args": {"i": "1"}, "fused_ops": {"list": {"s": ["Qmlhc0FkZA=="]}}}}, {"name": "rnn_classifier/bidi_lstm/bidirectional_rnn/fw/fw/while/NextIteration", "op": "NextIteration", "input": ["rnn_classifier/bidi_lstm/bidirectional_rnn/fw/fw/while/add"], "attr": {"T": {"type": "DT_INT32"}}}, {"name": "rnn_classifier/bidi_lstm/bidirectional_rnn/fw/fw/while/NextIteration_1", "op": "NextIteration", "input": ["rnn_classifier/bidi_lstm/bidirectional_rnn/fw/fw/while/add_1"], "attr": {"T": {"type": "DT_INT32"}}}, {"name": "rnn_classifier/bidi_lstm/bidirectional_rnn/bw/bw/while/lstm_cell/concat", "op": "ConcatV2", "input": ["rnn_classifier/bidi_lstm/bidirectional_rnn/bw/bw/while/TensorArrayReadV3", "rnn_classifier/bidi_lstm/bidirectional_rnn/bw/bw/while/Switch_4:1", "rnn_classifier/bidi_lstm/bidirectional_rnn/bw/bw/while/lstm_cell/concat/axis"], "attr": {"Tidx": {"type": "DT_INT32"}, "N": {"i": "2"}, "T": {"type": "DT_FLOAT"}}}, {"name": "rnn_classifier/bidi_lstm/bidirectional_rnn/bw/bw/while/add", "op": "AddV2", "input": ["rnn_classifier/bidi_lstm/bidirectional_rnn/bw/bw/while/Identity", "rnn_classifier/bidi_lstm/bidirectional_rnn/bw/bw/while/add/y"], "attr": {"T": {"type": "DT_INT32"}}}, {"name": "rnn_classifier/bidi_lstm/bidirectional_rnn/bw/bw/while/add_1", "op": "AddV2", "input": ["rnn_classifier/bidi_lstm/bidirectional_rnn/bw/bw/while/Switch_1:1", "rnn_classifier/bidi_lstm/bidirectional_rnn/bw/bw/while/add_1/y"], "attr": {"T": {"type": "DT_INT32"}}}, {"name": "rnn_classifier/bidi_lstm/bidirectional_rnn/bw/bw/transpose_1", "op": "Transpose", "input": ["rnn_classifier/bidi_lstm/bidirectional_rnn/bw/bw/TensorArrayStack/TensorArrayGatherV3", "rnn_classifier/bidi_lstm/bidirectional_rnn/bw/bw/concat_2"], "attr": {"T": {"type": "DT_FLOAT"}, "Tperm": {"type": "DT_INT32"}}}, {"name": "rnn_classifier/bidi_lstm/bidirectional_rnn/fw/fw/while/lstm_cell/split", "op": "Split", "input": ["rnn_classifier/bidi_lstm/bidirectional_rnn/fw/fw/while/lstm_cell/split/split_dim", "rnn_classifier/bidi_lstm/bidirectional_rnn/fw/fw/while/lstm_cell/BiasAdd"], "attr": {"T": {"type": "DT_FLOAT"}, "num_split": {"i": "4"}}}, {"name": "rnn_classifier/bidi_lstm/bidirectional_rnn/bw/bw/while/lstm_cell/BiasAdd", "op": "_FusedMatMul", "input": ["rnn_classifier/bidi_lstm/bidirectional_rnn/bw/bw/while/lstm_cell/concat", "ConstantFolding/bidi_lstm/bidirectional_rnn/bw/lstm_cell/kernel_enter", "ConstantFolding/bidi_lstm/bidirectional_rnn/bw/lstm_cell/bias_enter"], "device": "/device:CPU:0", "attr": {"T": {"type": "DT_FLOAT"}, "transpose_a": {"b": false}, "num_args": {"i": "1"}, "fused_ops": {"list": {"s": ["Qmlhc0FkZA=="]}}, "epsilon": {"f": 0.0}, "transpose_b": {"b": false}}}, {"name": "rnn_classifier/bidi_lstm/bidirectional_rnn/bw/bw/while/NextIteration", "op": "NextIteration", "input": ["rnn_classifier/bidi_lstm/bidirectional_rnn/bw/bw/while/add"], "attr": {"T": {"type": "DT_INT32"}}}, {"name": "rnn_classifier/bidi_lstm/bidirectional_rnn/bw/bw/while/NextIteration_1", "op": "NextIteration", "input": ["rnn_classifier/bidi_lstm/bidirectional_rnn/bw/bw/while/add_1"], "attr": {"T": {"type": "DT_INT32"}}}, {"name": "rnn_classifier/bidi_lstm/ReverseSequence", "op": "ReverseSequence", "input": ["rnn_classifier/bidi_lstm/bidirectional_rnn/bw/bw/transpose_1", "rnn_classifier/compute_lengths/Sum"], "attr": {"Tlen": {"type": "DT_INT32"}, "seq_dim": {"i": "1"}, "batch_dim": {"i": "0"}, "T": {"type": "DT_FLOAT"}}}, {"name": "rnn_classifier/bidi_lstm/bidirectional_rnn/fw/fw/while/lstm_cell/Sigmoid_1", "op": "Sigmoid", "input": ["rnn_classifier/bidi_lstm/bidirectional_rnn/fw/fw/while/lstm_cell/split"], "attr": {"T": {"type": "DT_FLOAT"}}}, {"name": "rnn_classifier/bidi_lstm/bidirectional_rnn/fw/fw/while/lstm_cell/Tanh", "op": "Tanh", "input": ["rnn_classifier/bidi_lstm/bidirectional_rnn/fw/fw/while/lstm_cell/split:1"], "attr": {"T": {"type": "DT_FLOAT"}}}, {"name": "rnn_classifier/bidi_lstm/bidirectional_rnn/fw/fw/while/lstm_cell/add", "op": "AddV2", "input": ["rnn_classifier/bidi_lstm/bidirectional_rnn/fw/fw/while/lstm_cell/split:2", "rnn_classifier/bidi_lstm/bidirectional_rnn/fw/fw/while/lstm_cell/add/y"], "attr": {"T": {"type": "DT_FLOAT"}}}, {"name": "rnn_classifier/bidi_lstm/bidirectional_rnn/fw/fw/while/lstm_cell/Sigmoid_2", "op": "Sigmoid", "input": ["rnn_classifier/bidi_lstm/bidirectional_rnn/fw/fw/while/lstm_cell/split:3"], "attr": {"T": {"type": "DT_FLOAT"}}}, {"name": "rnn_classifier/bidi_lstm/bidirectional_rnn/bw/bw/while/lstm_cell/split", "op": "Split", "input": ["rnn_classifier/bidi_lstm/bidirectional_rnn/bw/bw/while/lstm_cell/split/split_dim", "rnn_classifier/bidi_lstm/bidirectional_rnn/bw/bw/while/lstm_cell/BiasAdd"], "attr": {"T": {"type": "DT_FLOAT"}, "num_split": {"i": "4"}}}, {"name": "rnn_classifier/bidi_lstm/concat", "op": "ConcatV2", "input": ["rnn_classifier/bidi_lstm/bidirectional_rnn/fw/fw/transpose_1", "rnn_classifier/bidi_lstm/ReverseSequence", "rnn_classifier/bidi_lstm/concat/axis"], "attr": {"Tidx": {"type": "DT_INT32"}, "N": {"i": "2"}, "T": {"type": "DT_FLOAT"}}}, {"name": "rnn_classifier/bidi_lstm/bidirectional_rnn/fw/fw/while/lstm_cell/mul_1", "op": "Mul", "input": ["rnn_classifier/bidi_lstm/bidirectional_rnn/fw/fw/while/lstm_cell/Sigmoid_1", "rnn_classifier/bidi_lstm/bidirectional_rnn/fw/fw/while/lstm_cell/Tanh"], "attr": {"T": {"type": "DT_FLOAT"}}}, {"name": "rnn_classifier/bidi_lstm/bidirectional_rnn/fw/fw/while/lstm_cell/Sigmoid", "op": "Sigmoid", "input": ["rnn_classifier/bidi_lstm/bidirectional_rnn/fw/fw/while/lstm_cell/add"], "attr": {"T": {"type": "DT_FLOAT"}}}, {"name": "rnn_classifier/bidi_lstm/bidirectional_rnn/bw/bw/while/lstm_cell/Sigmoid_1", "op": "Sigmoid", "input": ["rnn_classifier/bidi_lstm/bidirectional_rnn/bw/bw/while/lstm_cell/split"], "attr": {"T": {"type": "DT_FLOAT"}}}, {"name": "rnn_classifier/bidi_lstm/bidirectional_rnn/bw/bw/while/lstm_cell/Tanh", "op": "Tanh", "input": ["rnn_classifier/bidi_lstm/bidirectional_rnn/bw/bw/while/lstm_cell/split:1"], "attr": {"T": {"type": "DT_FLOAT"}}}, {"name": "rnn_classifier/bidi_lstm/bidirectional_rnn/bw/bw/while/lstm_cell/add", "op": "AddV2", "input": ["rnn_classifier/bidi_lstm/bidirectional_rnn/bw/bw/while/lstm_cell/split:2", "rnn_classifier/bidi_lstm/bidirectional_rnn/bw/bw/while/lstm_cell/add/y"], "attr": {"T": {"type": "DT_FLOAT"}}}, {"name": "rnn_classifier/bidi_lstm/bidirectional_rnn/bw/bw/while/lstm_cell/Sigmoid_2", "op": "Sigmoid", "input": ["rnn_classifier/bidi_lstm/bidirectional_rnn/bw/bw/while/lstm_cell/split:3"], "attr": {"T": {"type": "DT_FLOAT"}}}, {"name": "rnn_classifier/max_pooling/Shape", "op": "Shape", "input": ["rnn_classifier/bidi_lstm/concat"], "attr": {"T": {"type": "DT_FLOAT"}, "out_type": {"type": "DT_INT32"}}}, {"name": "rnn_classifier/max_pooling/Min", "op": "Min", "input": ["rnn_classifier/bidi_lstm/concat", "rnn_classifier/max_pooling/Const"], "attr": {"T": {"type": "DT_FLOAT"}, "Tidx": {"type": "DT_INT32"}, "keep_dims": {"b": false}}}, {"name": "rnn_classifier/max_pooling/ones_like/Shape", "op": "Shape", "input": ["rnn_classifier/bidi_lstm/concat"], "attr": {"T": {"type": "DT_FLOAT"}, "out_type": {"type": "DT_INT32"}}}, {"name": "rnn_classifier/bidi_lstm/bidirectional_rnn/fw/fw/while/lstm_cell/mul", "op": "Mul", "input": ["rnn_classifier/bidi_lstm/bidirectional_rnn/fw/fw/while/lstm_cell/Sigmoid", "rnn_classifier/bidi_lstm/bidirectional_rnn/fw/fw/while/Switch_3:1"], "attr": {"T": {"type": "DT_FLOAT"}}}, {"name": "rnn_classifier/bidi_lstm/bidirectional_rnn/bw/bw/while/lstm_cell/mul_1", "op": "Mul", "input": ["rnn_classifier/bidi_lstm/bidirectional_rnn/bw/bw/while/lstm_cell/Sigmoid_1", "rnn_classifier/bidi_lstm/bidirectional_rnn/bw/bw/while/lstm_cell/Tanh"], "attr": {"T": {"type": "DT_FLOAT"}}}, {"name": "rnn_classifier/bidi_lstm/bidirectional_rnn/bw/bw/while/lstm_cell/Sigmoid", "op": "Sigmoid", "input": ["rnn_classifier/bidi_lstm/bidirectional_rnn/bw/bw/while/lstm_cell/add"], "attr": {"T": {"type": "DT_FLOAT"}}}, {"name": "rnn_classifier/max_pooling/strided_slice", "op": "StridedSlice", "input": ["rnn_classifier/max_pooling/Shape", "rnn_classifier/max_pooling/strided_slice/stack", "rnn_classifier/max_pooling/strided_slice/stack_1", "rnn_classifier/max_pooling/strided_slice/stack_2"], "attr": {"shrink_axis_mask": {"i": "1"}, "ellipsis_mask": {"i": "0"}, "end_mask": {"i": "0"}, "Index": {"type": "DT_INT32"}, "new_axis_mask": {"i": "0"}, "T": {"type": "DT_INT32"}, "begin_mask": {"i": "0"}}}, {"name": "rnn_classifier/max_pooling/ones_like", "op": "Fill", "input": ["rnn_classifier/max_pooling/ones_like/Shape", "rnn_classifier/max_pooling/ones_like/Const"], "attr": {"T": {"type": "DT_FLOAT"}, "index_type": {"type": "DT_INT32"}}}, {"name": "rnn_classifier/bidi_lstm/bidirectional_rnn/fw/fw/while/lstm_cell/add_1", "op": "AddV2", "input": ["rnn_classifier/bidi_lstm/bidirectional_rnn/fw/fw/while/lstm_cell/mul", "rnn_classifier/bidi_lstm/bidirectional_rnn/fw/fw/while/lstm_cell/mul_1"], "attr": {"T": {"type": "DT_FLOAT"}}}, {"name": "rnn_classifier/bidi_lstm/bidirectional_rnn/bw/bw/while/lstm_cell/mul", "op": "Mul", "input": ["rnn_classifier/bidi_lstm/bidirectional_rnn/bw/bw/while/lstm_cell/Sigmoid", "rnn_classifier/bidi_lstm/bidirectional_rnn/bw/bw/while/Switch_3:1"], "attr": {"T": {"type": "DT_FLOAT"}}}, {"name": "rnn_classifier/max_pooling/Tile/multiples", "op": "Pack", "input": ["rnn_classifier/max_pooling/Tile/multiples/0", "rnn_classifier/max_pooling/Tile/multiples/1", "rnn_classifier/max_pooling/strided_slice"], "attr": {"N": {"i": "3"}, "T": {"type": "DT_INT32"}, "axis": {"i": "0"}}}, {"name": "rnn_classifier/max_pooling/mul", "op": "Mul", "input": ["rnn_classifier/max_pooling/Min", "rnn_classifier/max_pooling/ones_like"], "attr": {"T": {"type": "DT_FLOAT"}}}, {"name": "rnn_classifier/bidi_lstm/bidirectional_rnn/fw/fw/while/Select_1", "op": "Select", "input": ["rnn_classifier/bidi_lstm/bidirectional_rnn/fw/fw/while/GreaterEqual", "rnn_classifier/bidi_lstm/bidirectional_rnn/fw/fw/while/Switch_3:1", "rnn_classifier/bidi_lstm/bidirectional_rnn/fw/fw/while/lstm_cell/add_1"], "attr": {"T": {"type": "DT_FLOAT"}}}, {"name": "rnn_classifier/bidi_lstm/bidirectional_rnn/fw/fw/while/lstm_cell/Tanh_1", "op": "Tanh", "input": ["rnn_classifier/bidi_lstm/bidirectional_rnn/fw/fw/while/lstm_cell/add_1"], "attr": {"T": {"type": "DT_FLOAT"}}}, {"name": "rnn_classifier/bidi_lstm/bidirectional_rnn/bw/bw/while/lstm_cell/add_1", "op": "AddV2", "input": ["rnn_classifier/bidi_lstm/bidirectional_rnn/bw/bw/while/lstm_cell/mul", "rnn_classifier/bidi_lstm/bidirectional_rnn/bw/bw/while/lstm_cell/mul_1"], "attr": {"T": {"type": "DT_FLOAT"}}}, {"name": "rnn_classifier/max_pooling/Tile", "op": "Tile", "input": ["rnn_classifier/max_pooling/ExpandDims", "rnn_classifier/max_pooling/Tile/multiples"], "attr": {"T": {"type": "DT_BOOL"}, "Tmultiples": {"type": "DT_INT32"}}}, {"name": "rnn_classifier/bidi_lstm/bidirectional_rnn/fw/fw/while/NextIteration_3", "op": "NextIteration", "input": ["rnn_classifier/bidi_lstm/bidirectional_rnn/fw/fw/while/Select_1"], "attr": {"T": {"type": "DT_FLOAT"}}}, {"name": "rnn_classifier/bidi_lstm/bidirectional_rnn/fw/fw/while/lstm_cell/mul_2", "op": "Mul", "input": ["rnn_classifier/bidi_lstm/bidirectional_rnn/fw/fw/while/lstm_cell/Sigmoid_2", "rnn_classifier/bidi_lstm/bidirectional_rnn/fw/fw/while/lstm_cell/Tanh_1"], "attr": {"T": {"type": "DT_FLOAT"}}}, {"name": "rnn_classifier/bidi_lstm/bidirectional_rnn/bw/bw/while/Select_1", "op": "Select", "input": ["rnn_classifier/bidi_lstm/bidirectional_rnn/bw/bw/while/GreaterEqual", "rnn_classifier/bidi_lstm/bidirectional_rnn/bw/bw/while/Switch_3:1", "rnn_classifier/bidi_lstm/bidirectional_rnn/bw/bw/while/lstm_cell/add_1"], "attr": {"T": {"type": "DT_FLOAT"}}}, {"name": "rnn_classifier/bidi_lstm/bidirectional_rnn/bw/bw/while/lstm_cell/Tanh_1", "op": "Tanh", "input": ["rnn_classifier/bidi_lstm/bidirectional_rnn/bw/bw/while/lstm_cell/add_1"], "attr": {"T": {"type": "DT_FLOAT"}}}, {"name": "rnn_classifier/max_pooling/Select", "op": "Select", "input": ["rnn_classifier/max_pooling/Tile", "rnn_classifier/bidi_lstm/concat", "rnn_classifier/max_pooling/mul"], "attr": {"T": {"type": "DT_FLOAT"}}}, {"name": "rnn_classifier/bidi_lstm/bidirectional_rnn/fw/fw/while/Select_2", "op": "Select", "input": ["rnn_classifier/bidi_lstm/bidirectional_rnn/fw/fw/while/GreaterEqual", "rnn_classifier/bidi_lstm/bidirectional_rnn/fw/fw/while/Switch_4:1", "rnn_classifier/bidi_lstm/bidirectional_rnn/fw/fw/while/lstm_cell/mul_2"], "attr": {"T": {"type": "DT_FLOAT"}}}, {"name": "rnn_classifier/bidi_lstm/bidirectional_rnn/fw/fw/while/Select", "op": "Select", "input": ["rnn_classifier/bidi_lstm/bidirectional_rnn/fw/fw/while/GreaterEqual", "ConstantFolding/rnn_classifier/bidi_lstm/bidirectional_rnn/fw/fw/zeros_enter", "rnn_classifier/bidi_lstm/bidirectional_rnn/fw/fw/while/lstm_cell/mul_2"], "attr": {"T": {"type": "DT_FLOAT"}}}, {"name": "rnn_classifier/bidi_lstm/bidirectional_rnn/bw/bw/while/NextIteration_3", "op": "NextIteration", "input": ["rnn_classifier/bidi_lstm/bidirectional_rnn/bw/bw/while/Select_1"], "attr": {"T": {"type": "DT_FLOAT"}}}, {"name": "rnn_classifier/bidi_lstm/bidirectional_rnn/bw/bw/while/lstm_cell/mul_2", "op": "Mul", "input": ["rnn_classifier/bidi_lstm/bidirectional_rnn/bw/bw/while/lstm_cell/Sigmoid_2", "rnn_classifier/bidi_lstm/bidirectional_rnn/bw/bw/while/lstm_cell/Tanh_1"], "attr": {"T": {"type": "DT_FLOAT"}}}, {"name": "rnn_classifier/max_pooling/Max", "op": "Max", "input": ["rnn_classifier/max_pooling/Select", "rnn_classifier/max_pooling/Max/reduction_indices"], "attr": {"T": {"type": "DT_FLOAT"}, "Tidx": {"type": "DT_INT32"}, "keep_dims": {"b": false}}}, {"name": "rnn_classifier/bidi_lstm/bidirectional_rnn/fw/fw/while/NextIteration_4", "op": "NextIteration", "input": ["rnn_classifier/bidi_lstm/bidirectional_rnn/fw/fw/while/Select_2"], "attr": {"T": {"type": "DT_FLOAT"}}}, {"name": "rnn_classifier/bidi_lstm/bidirectional_rnn/fw/fw/while/TensorArrayWrite/TensorArrayWriteV3", "op": "TensorArrayWriteV3", "input": ["rnn_classifier/bidi_lstm/bidirectional_rnn/fw/fw/while/TensorArrayWrite/TensorArrayWriteV3/Enter", "rnn_classifier/bidi_lstm/bidirectional_rnn/fw/fw/while/Switch_1:1", "rnn_classifier/bidi_lstm/bidirectional_rnn/fw/fw/while/Select", "rnn_classifier/bidi_lstm/bidirectional_rnn/fw/fw/while/Switch_2:1"], "attr": {"T": {"type": "DT_FLOAT"}}}, {"name": "rnn_classifier/bidi_lstm/bidirectional_rnn/bw/bw/while/Select_2", "op": "Select", "input": ["rnn_classifier/bidi_lstm/bidirectional_rnn/bw/bw/while/GreaterEqual", "rnn_classifier/bidi_lstm/bidirectional_rnn/bw/bw/while/Switch_4:1", "rnn_classifier/bidi_lstm/bidirectional_rnn/bw/bw/while/lstm_cell/mul_2"], "attr": {"T": {"type": "DT_FLOAT"}}}, {"name": "rnn_classifier/bidi_lstm/bidirectional_rnn/bw/bw/while/Select", "op": "Select", "input": ["rnn_classifier/bidi_lstm/bidirectional_rnn/bw/bw/while/GreaterEqual", "ConstantFolding/rnn_classifier/bidi_lstm/bidirectional_rnn/bw/bw/zeros_enter", "rnn_classifier/bidi_lstm/bidirectional_rnn/bw/bw/while/lstm_cell/mul_2"], "attr": {"T": {"type": "DT_FLOAT"}}}, {"name": "rnn_classifier/fully_connected/BiasAdd", "op": "_FusedMatMul", "input": ["rnn_classifier/max_pooling/Max", "fully_connected/weights", "fully_connected/biases"], "device": "/device:CPU:0", "attr": {"epsilon": {"f": 0.0}, "transpose_b": {"b": false}, "transpose_a": {"b": false}, "T": {"type": "DT_FLOAT"}, "num_args": {"i": "1"}, "fused_ops": {"list": {"s": ["Qmlhc0FkZA=="]}}}}, {"name": "rnn_classifier/bidi_lstm/bidirectional_rnn/fw/fw/while/NextIteration_2", "op": "NextIteration", "input": ["rnn_classifier/bidi_lstm/bidirectional_rnn/fw/fw/while/TensorArrayWrite/TensorArrayWriteV3"], "attr": {"T": {"type": "DT_FLOAT"}}}, {"name": "rnn_classifier/bidi_lstm/bidirectional_rnn/bw/bw/while/NextIteration_4", "op": "NextIteration", "input": ["rnn_classifier/bidi_lstm/bidirectional_rnn/bw/bw/while/Select_2"], "attr": {"T": {"type": "DT_FLOAT"}}}, {"name": "rnn_classifier/bidi_lstm/bidirectional_rnn/bw/bw/while/TensorArrayWrite/TensorArrayWriteV3", "op": "TensorArrayWriteV3", "input": ["rnn_classifier/bidi_lstm/bidirectional_rnn/bw/bw/while/TensorArrayWrite/TensorArrayWriteV3/Enter", "rnn_classifier/bidi_lstm/bidirectional_rnn/bw/bw/while/Switch_1:1", "rnn_classifier/bidi_lstm/bidirectional_rnn/bw/bw/while/Select", "rnn_classifier/bidi_lstm/bidirectional_rnn/bw/bw/while/Switch_2:1"], "attr": {"T": {"type": "DT_FLOAT"}}}, {"name": "rnn_classifier/fully_connected/Tanh", "op": "Tanh", "input": ["rnn_classifier/fully_connected/BiasAdd"], "attr": {"T": {"type": "DT_FLOAT"}}}, {"name": "rnn_classifier/bidi_lstm/bidirectional_rnn/bw/bw/while/NextIteration_2", "op": "NextIteration", "input": ["rnn_classifier/bidi_lstm/bidirectional_rnn/bw/bw/while/TensorArrayWrite/TensorArrayWriteV3"], "attr": {"T": {"type": "DT_FLOAT"}}}, {"name": "rnn_classifier/fully_connected_1/BiasAdd", "op": "_FusedMatMul", "input": ["rnn_classifier/fully_connected/Tanh", "fully_connected_1/weights", "fully_connected_1/biases"], "device": "/device:CPU:0", "attr": {"transpose_b": {"b": false}, "epsilon": {"f": 0.0}, "transpose_a": {"b": false}, "T": {"type": "DT_FLOAT"}, "num_args": {"i": "1"}, "fused_ops": {"list": {"s": ["Qmlhc0FkZA=="]}}}}, {"name": "rnn_classifier/fully_connected_1/Tanh", "op": "Tanh", "input": ["rnn_classifier/fully_connected_1/BiasAdd"], "attr": {"T": {"type": "DT_FLOAT"}}}, {"name": "rnn_classifier/fc_to_logits/BiasAdd", "op": "_FusedMatMul", "input": ["rnn_classifier/fully_connected_1/Tanh", "fc_to_logits/weights", "fc_to_logits/biases"], "device": "/device:CPU:0", "attr": {"transpose_b": {"b": false}, "epsilon": {"f": 0.0}, "T": {"type": "DT_FLOAT"}, "transpose_a": {"b": false}, "num_args": {"i": "1"}, "fused_ops": {"list": {"s": ["Qmlhc0FkZA=="]}}}}, {"name": "softmax_outputs", "op": "Softmax", "input": ["rnn_classifier/fc_to_logits/BiasAdd"], "attr": {"T": {"type": "DT_FLOAT"}}}], "versions": {}}, "weightsManifest": [{"paths": ["group1-shard1of2.bin", "group1-shard2of2.bin"], "weights": [{"name": "rnn_classifier/max_pooling/SequenceMask/Const_2", "shape": [], "dtype": "int32"}, {"name": "rnn_classifier/max_pooling/SequenceMask/Const_1", "shape": [], "dtype": "int32"}, {"name": "rnn_classifier/max_pooling/SequenceMask/Const", "shape": [1], "dtype": "int32"}, {"name": "rnn_classifier/max_pooling/SequenceMask/Const_3", "shape": [], "dtype": "int32"}, {"name": "rnn_classifier/max_pooling/SequenceMask/ExpandDims/dim", "shape": [], "dtype": "int32"}, {"name": "rnn_classifier/max_pooling/ExpandDims/dim", "shape": [], "dtype": "int32"}, {"name": "rnn_classifier/max_pooling/Tile/multiples/0", "shape": [], "dtype": "int32"}, {"name": "rnn_classifier/max_pooling/Tile/multiples/1", "shape": [], "dtype": "int32"}, {"name": "rnn_classifier/max_pooling/strided_slice/stack", "shape": [1], "dtype": "int32"}, {"name": "rnn_classifier/max_pooling/strided_slice/stack_1", "shape": [1], "dtype": "int32"}, {"name": "rnn_classifier/max_pooling/strided_slice/stack_2", "shape": [1], "dtype": "int32"}, {"name": "rnn_classifier/max_pooling/Const", "shape": [3], "dtype": "int32"}, {"name": "rnn_classifier/bidi_lstm/bidirectional_rnn/fw/fw/TensorArrayStack/range/start", "shape": [], "dtype": "int32"}, {"name": "rnn_classifier/bidi_lstm/bidirectional_rnn/fw/fw/TensorArrayStack/range/delta", "shape": [], "dtype": "int32"}, {"name": "rnn_classifier/bidi_lstm/bidirectional_rnn/fw/fw/zeros", "shape": [1, 128], "dtype": "float32"}, {"name": "rnn_classifier/bidi_lstm/bidirectional_rnn/fw/fw/LSTMCellZeroState/zeros", "shape": [1, 128], "dtype": "float32"}, {"name": "rnn_classifier/bidi_lstm/bidirectional_rnn/fw/fw/TensorArrayUnstack/range/start", "shape": [], "dtype": "int32"}, {"name": "rnn_classifier/bidi_lstm/bidirectional_rnn/fw/fw/TensorArrayUnstack/strided_slice/stack", "shape": [1], "dtype": "int32"}, {"name": "rnn_classifier/bidi_lstm/bidirectional_rnn/fw/fw/TensorArrayUnstack/strided_slice/stack_1", "shape": [1], "dtype": "int32"}, {"name": "rnn_classifier/bidi_lstm/bidirectional_rnn/fw/fw/TensorArrayUnstack/strided_slice/stack_2", "shape": [1], "dtype": "int32"}, {"name": "rnn_classifier/bidi_lstm/bidirectional_rnn/fw/fw/TensorArrayUnstack/range/delta", "shape": [], "dtype": "int32"}, {"name": "rnn_classifier/bidi_lstm/bidirectional_rnn/fw/fw/LSTMCellZeroState/zeros_1", "shape": [1, 128], "dtype": "float32"}, {"name": "bidi_lstm/bidirectional_rnn/fw/lstm_cell/kernel", "shape": [608, 512], "dtype": "float32"}, {"name": "bidi_lstm/bidirectional_rnn/fw/lstm_cell/bias", "shape": [512], "dtype": "float32"}, {"name": "rnn_classifier/bidi_lstm/bidirectional_rnn/fw/fw/time", "shape": [], "dtype": "int32"}, {"name": "rnn_classifier/bidi_lstm/bidirectional_rnn/fw/fw/while/iteration_counter", "shape": [], "dtype": "int32"}, {"name": "rnn_classifier/bidi_lstm/bidirectional_rnn/fw/fw/concat", "shape": [3], "dtype": "int32"}, {"name": "rnn_classifier/bidi_lstm/bidirectional_rnn/fw/fw/strided_slice/stack", "shape": [1], "dtype": "int32"}, {"name": "rnn_classifier/bidi_lstm/bidirectional_rnn/fw/fw/strided_slice/stack_1", "shape": [1], "dtype": "int32"}, {"name": "rnn_classifier/bidi_lstm/bidirectional_rnn/fw/fw/strided_slice/stack_2", "shape": [1], "dtype": "int32"}, {"name": "rnn_classifier/bidi_lstm/bidirectional_rnn/fw/fw/Maximum/x", "shape": [], "dtype": "int32"}, {"name": "rnn_classifier/bidi_lstm/bidirectional_rnn/fw/fw/Const_4", "shape": [1], "dtype": "int32"}, {"name": "rnn_classifier/bidi_lstm/bidirectional_rnn/fw/fw/concat_2", "shape": [3], "dtype": "int32"}, {"name": "rnn_classifier/bidi_lstm/bidirectional_rnn/bw/bw/TensorArrayStack/range/start", "shape": [], "dtype": "int32"}, {"name": "rnn_classifier/bidi_lstm/bidirectional_rnn/bw/bw/TensorArrayStack/range/delta", "shape": [], "dtype": "int32"}, {"name": "rnn_classifier/bidi_lstm/bidirectional_rnn/bw/bw/zeros", "shape": [1, 128], "dtype": "float32"}, {"name": "rnn_classifier/bidi_lstm/bidirectional_rnn/bw/bw/LSTMCellZeroState/zeros", "shape": [1, 128], "dtype": "float32"}, {"name": "rnn_classifier/bidi_lstm/bidirectional_rnn/bw/bw/TensorArrayUnstack/range/start", "shape": [], "dtype": "int32"}, {"name": "rnn_classifier/bidi_lstm/bidirectional_rnn/bw/bw/TensorArrayUnstack/strided_slice/stack", "shape": [1], "dtype": "int32"}, {"name": "rnn_classifier/bidi_lstm/bidirectional_rnn/bw/bw/TensorArrayUnstack/strided_slice/stack_1", "shape": [1], "dtype": "int32"}, {"name": "rnn_classifier/bidi_lstm/bidirectional_rnn/bw/bw/TensorArrayUnstack/strided_slice/stack_2", "shape": [1], "dtype": "int32"}, {"name": "rnn_classifier/bidi_lstm/bidirectional_rnn/bw/bw/TensorArrayUnstack/range/delta", "shape": [], "dtype": "int32"}, {"name": "rnn_classifier/bidi_lstm/bidirectional_rnn/bw/bw/LSTMCellZeroState/zeros_1", "shape": [1, 128], "dtype": "float32"}, {"name": "bidi_lstm/bidirectional_rnn/bw/lstm_cell/kernel", "shape": [608, 512], "dtype": "float32"}, {"name": "bidi_lstm/bidirectional_rnn/bw/lstm_cell/bias", "shape": [512], "dtype": "float32"}, {"name": "rnn_classifier/bidi_lstm/bidirectional_rnn/bw/bw/time", "shape": [], "dtype": "int32"}, {"name": "rnn_classifier/bidi_lstm/bidirectional_rnn/bw/bw/while/iteration_counter", "shape": [], "dtype": "int32"}, {"name": "rnn_classifier/Convolutions/strided_slice/stack", "shape": [2], "dtype": "int32"}, {"name": "rnn_classifier/Convolutions/strided_slice/stack_1", "shape": [2], "dtype": "int32"}, {"name": "rnn_classifier/Convolutions/strided_slice/stack_2", "shape": [2], "dtype": "int32"}, {"name": "rnn_classifier/Convolutions/Conv/conv1d/ExpandDims/dim", "shape": [], "dtype": "int32"}, {"name": "rnn_classifier/Convolutions/Conv/conv1d/ExpandDims_1", "shape": [1, 5, 1, 48], "dtype": "float32"}, {"name": "Convolutions/Conv/biases", "shape": [48], "dtype": "float32"}, {"name": "rnn_classifier/Convolutions/Conv_1/conv1d/ExpandDims/dim", "shape": [], "dtype": "int32"}, {"name": "rnn_classifier/Convolutions/Conv_1/conv1d/ExpandDims_1", "shape": [1, 5, 48, 64], "dtype": "float32"}, {"name": "Convolutions/Conv_1/biases", "shape": [64], "dtype": "float32"}, {"name": "rnn_classifier/Convolutions/Conv_2/conv1d/ExpandDims/dim", "shape": [], "dtype": "int32"}, {"name": "rnn_classifier/Convolutions/Conv_2/conv1d/ExpandDims_1", "shape": [1, 3, 64, 96], "dtype": "float32"}, {"name": "Convolutions/Conv_2/biases", "shape": [96], "dtype": "float32"}, {"name": "rnn_classifier/Convolutions/strided_slice_1/stack", "shape": [2], "dtype": "int32"}, {"name": "rnn_classifier/Convolutions/strided_slice_1/stack_1", "shape": [2], "dtype": "int32"}, {"name": "rnn_classifier/Convolutions/strided_slice_1/stack_2", "shape": [2], "dtype": "int32"}, {"name": "rnn_classifier/Convolutions/Conv_3/conv1d/ExpandDims/dim", "shape": [], "dtype": "int32"}, {"name": "rnn_classifier/Convolutions/Conv_3/conv1d/ExpandDims_1", "shape": [1, 5, 1, 48], "dtype": "float32"}, {"name": "Convolutions/Conv_3/biases", "shape": [48], "dtype": "float32"}, {"name": "rnn_classifier/Convolutions/Conv_4/conv1d/ExpandDims/dim", "shape": [], "dtype": "int32"}, {"name": "rnn_classifier/Convolutions/Conv_4/conv1d/ExpandDims_1", "shape": [1, 5, 48, 64], "dtype": "float32"}, {"name": "Convolutions/Conv_4/biases", "shape": [64], "dtype": "float32"}, {"name": "rnn_classifier/Convolutions/Conv_5/conv1d/ExpandDims/dim", "shape": [], "dtype": "int32"}, {"name": "rnn_classifier/Convolutions/Conv_5/conv1d/ExpandDims_1", "shape": [1, 3, 64, 96], "dtype": "float32"}, {"name": "Convolutions/Conv_5/biases", "shape": [96], "dtype": "float32"}, {"name": "rnn_classifier/Convolutions/strided_slice_2/stack", "shape": [2], "dtype": "int32"}, {"name": "rnn_classifier/Convolutions/strided_slice_2/stack_1", "shape": [2], "dtype": "int32"}, {"name": "rnn_classifier/Convolutions/strided_slice_2/stack_2", "shape": [2], "dtype": "int32"}, {"name": "rnn_classifier/Convolutions/Conv_6/conv1d/ExpandDims/dim", "shape": [], "dtype": "int32"}, {"name": "rnn_classifier/Convolutions/Conv_6/conv1d/ExpandDims_1", "shape": [1, 5, 1, 48], "dtype": "float32"}, {"name": "Convolutions/Conv_6/biases", "shape": [48], "dtype": "float32"}, {"name": "rnn_classifier/Convolutions/Conv_7/conv1d/ExpandDims/dim", "shape": [], "dtype": "int32"}, {"name": "rnn_classifier/Convolutions/Conv_7/conv1d/ExpandDims_1", "shape": [1, 5, 48, 64], "dtype": "float32"}, {"name": "Convolutions/Conv_7/biases", "shape": [64], "dtype": "float32"}, {"name": "rnn_classifier/Convolutions/Conv_8/conv1d/ExpandDims/dim", "shape": [], "dtype": "int32"}, {"name": "rnn_classifier/Convolutions/Conv_8/conv1d/ExpandDims_1", "shape": [1, 3, 64, 96], "dtype": "float32"}, {"name": "Convolutions/Conv_8/biases", "shape": [96], "dtype": "float32"}, {"name": "rnn_classifier/Convolutions/strided_slice_3/stack", "shape": [2], "dtype": "int32"}, {"name": "rnn_classifier/Convolutions/strided_slice_3/stack_1", "shape": [2], "dtype": "int32"}, {"name": "rnn_classifier/Convolutions/strided_slice_3/stack_2", "shape": [2], "dtype": "int32"}, {"name": "rnn_classifier/Convolutions/Conv_9/conv1d/ExpandDims/dim", "shape": [], "dtype": "int32"}, {"name": "rnn_classifier/Convolutions/Conv_9/conv1d/ExpandDims_1", "shape": [1, 5, 1, 48], "dtype": "float32"}, {"name": "Convolutions/Conv_9/biases", "shape": [48], "dtype": "float32"}, {"name": "rnn_classifier/Convolutions/Conv_10/conv1d/ExpandDims/dim", "shape": [], "dtype": "int32"}, {"name": "rnn_classifier/Convolutions/Conv_10/conv1d/ExpandDims_1", "shape": [1, 5, 48, 64], "dtype": "float32"}, {"name": "Convolutions/Conv_10/biases", "shape": [64], "dtype": "float32"}, {"name": "rnn_classifier/Convolutions/Conv_11/conv1d/ExpandDims/dim", "shape": [], "dtype": "int32"}, {"name": "rnn_classifier/Convolutions/Conv_11/conv1d/ExpandDims_1", "shape": [1, 3, 64, 96], "dtype": "float32"}, {"name": "Convolutions/Conv_11/biases", "shape": [96], "dtype": "float32"}, {"name": "rnn_classifier/max_pooling/Max/reduction_indices", "shape": [], "dtype": "int32"}, {"name": "fully_connected/weights", "shape": [256, 384], "dtype": "float32"}, {"name": "fc_to_logits/biases", "shape": [419], "dtype": "float32"}, {"name": "fully_connected/biases", "shape": [384], "dtype": "float32"}, {"name": "fully_connected_1/weights", "shape": [384, 384], "dtype": "float32"}, {"name": "rnn_classifier/Convolutions/strided_slice_4/stack", "shape": [2], "dtype": "int32"}, {"name": "rnn_classifier/Convolutions/strided_slice_4/stack_1", "shape": [2], "dtype": "int32"}, {"name": "rnn_classifier/Convolutions/strided_slice_4/stack_2", "shape": [2], "dtype": "int32"}, {"name": "rnn_classifier/Convolutions/Conv_12/conv1d/ExpandDims/dim", "shape": [], "dtype": "int32"}, {"name": "rnn_classifier/Convolutions/Conv_12/conv1d/ExpandDims_1", "shape": [1, 5, 1, 48], "dtype": "float32"}, {"name": "fully_connected_1/biases", "shape": [384], "dtype": "float32"}, {"name": "Convolutions/Conv_12/biases", "shape": [48], "dtype": "float32"}, {"name": "rnn_classifier/Convolutions/Conv_13/conv1d/ExpandDims/dim", "shape": [], "dtype": "int32"}, {"name": "rnn_classifier/Convolutions/Conv_13/conv1d/ExpandDims_1", "shape": [1, 5, 48, 64], "dtype": "float32"}, {"name": "Convolutions/Conv_13/biases", "shape": [64], "dtype": "float32"}, {"name": "rnn_classifier/Convolutions/Conv_14/conv1d/ExpandDims/dim", "shape": [], "dtype": "int32"}, {"name": "rnn_classifier/Convolutions/Conv_14/conv1d/ExpandDims_1", "shape": [1, 3, 64, 96], "dtype": "float32"}, {"name": "Convolutions/Conv_14/biases", "shape": [96], "dtype": "float32"}, {"name": "rnn_classifier/Convolutions/concat/axis", "shape": [], "dtype": "int32"}, {"name": "rnn_classifier/bidi_lstm/bidirectional_rnn/bw/bw/concat", "shape": [3], "dtype": "int32"}, {"name": "rnn_classifier/bidi_lstm/bidirectional_rnn/bw/bw/strided_slice/stack", "shape": [1], "dtype": "int32"}, {"name": "rnn_classifier/bidi_lstm/bidirectional_rnn/bw/bw/strided_slice/stack_1", "shape": [1], "dtype": "int32"}, {"name": "rnn_classifier/bidi_lstm/bidirectional_rnn/bw/bw/strided_slice/stack_2", "shape": [1], "dtype": "int32"}, {"name": "rnn_classifier/bidi_lstm/bidirectional_rnn/bw/bw/Maximum/x", "shape": [], "dtype": "int32"}, {"name": "rnn_classifier/bidi_lstm/bidirectional_rnn/bw/bw/Const_4", "shape": [1], "dtype": "int32"}, {"name": "rnn_classifier/bidi_lstm/bidirectional_rnn/bw/bw/concat_2", "shape": [3], "dtype": "int32"}, {"name": "rnn_classifier/compute_lengths/Sum/reduction_indices", "shape": [], "dtype": "int32"}, {"name": "fc_to_logits/weights", "shape": [384, 419], "dtype": "float32"}, {"name": "rnn_classifier/bidi_lstm/concat/axis", "shape": [], "dtype": "int32"}, {"name": "rnn_classifier/max_pooling/ones_like/Const", "shape": [], "dtype": "float32"}, {"name": "ConstantFolding/rnn_classifier/bidi_lstm/bidirectional_rnn/fw/fw/zeros_enter", "shape": [1, 128], "dtype": "float32"}, {"name": "ConstantFolding/bidi_lstm/bidirectional_rnn/fw/lstm_cell/kernel_enter", "shape": [608, 512], "dtype": "float32"}, {"name": "ConstantFolding/bidi_lstm/bidirectional_rnn/fw/lstm_cell/bias_enter", "shape": [512], "dtype": "float32"}, {"name": "ConstantFolding/rnn_classifier/bidi_lstm/bidirectional_rnn/bw/bw/zeros_enter", "shape": [1, 128], "dtype": "float32"}, {"name": "ConstantFolding/bidi_lstm/bidirectional_rnn/bw/lstm_cell/kernel_enter", "shape": [608, 512], "dtype": "float32"}, {"name": "ConstantFolding/bidi_lstm/bidirectional_rnn/bw/lstm_cell/bias_enter", "shape": [512], "dtype": "float32"}, {"name": "rnn_classifier/bidi_lstm/bidirectional_rnn/fw/fw/while/lstm_cell/add/y", "shape": [], "dtype": "float32"}, {"name": "rnn_classifier/bidi_lstm/bidirectional_rnn/fw/fw/while/lstm_cell/split/split_dim", "shape": [], "dtype": "int32"}, {"name": "rnn_classifier/bidi_lstm/bidirectional_rnn/fw/fw/while/lstm_cell/concat/axis", "shape": [], "dtype": "int32"}, {"name": "rnn_classifier/bidi_lstm/bidirectional_rnn/fw/fw/while/add/y", "shape": [], "dtype": "int32"}, {"name": "rnn_classifier/bidi_lstm/bidirectional_rnn/fw/fw/while/add_1/y", "shape": [], "dtype": "int32"}, {"name": "rnn_classifier/bidi_lstm/bidirectional_rnn/bw/bw/while/lstm_cell/add/y", "shape": [], "dtype": "float32"}, {"name": "rnn_classifier/bidi_lstm/bidirectional_rnn/bw/bw/while/lstm_cell/split/split_dim", "shape": [], "dtype": "int32"}, {"name": "rnn_classifier/bidi_lstm/bidirectional_rnn/bw/bw/while/lstm_cell/concat/axis", "shape": [], "dtype": "int32"}, {"name": "rnn_classifier/bidi_lstm/bidirectional_rnn/bw/bw/while/add/y", "shape": [], "dtype": "int32"}, {"name": "rnn_classifier/bidi_lstm/bidirectional_rnn/bw/bw/while/add_1/y", "shape": [], "dtype": "int32"}]}]}